Gomoku-server/model/best_policy.pth (torch, 405173 bytes, 15 tensors)

conv1.weight f4 [32, 4, 3, 3]
000000 54 41 db 3d 75 49 55 3e 2c cc 92 be 8c 09 34 3e
       0.1070582 0.20828803 -0.28671396 0.17581767
000010 c4 0c b6 be 3d 90 8a 3e 73 05 3b bd 76 96 db 3d
       -0.35556614 0.2706317 -0.045659494 0.107220575
000020 77 a0 61 be 26 a7 49 3e df 8f 2e bd a1 4f 50 bd
       -0.22033869 0.19692668 -0.042617675 -0.05085719
000030 92 c9 71 3e 95 5e 45 3e bf 3f 27 3e d3 67 07 bc
       0.23612049 0.19274361 0.16332911 -0.0082645
000040 8c 20 78 bd 8c b5 eb 3d d3 57 9c be 88 c9 2b 3d
       -0.060577914 0.11509237 -0.30535755 0.041940242
000050 47 57 0e be 35 f0 bb 3b 79 f8 98 3d e9 c5 37 3d
       -0.13900481 0.005735422 0.074692674 0.044866476
000060 f8 e9 87 bd 49 a6 78 3a f9 63 04 be 22 ad ac bd
       -0.06636423 0.00094852276 -0.12928762 -0.0843146
000070 90 0a 66 be 7a 94 2f be 10 4f b8 bd 6a 87 3a be
       -0.22464967 -0.17146483 -0.08999455 -0.18215719
000080 04 df d6 bd 0d 9c 1f bc 6b 6d b4 bd 9a e2 e5 ba
       -0.104917556 -0.009741795 -0.08809932 -0.0017538846
000090 fb 34 2d 3d b5 48 6a 3e df 5d 87 3e b0 eb 92 3e
       0.042286854 0.22879298 0.26438805 0.2869544
0000a0 61 b0 4e 3e 0a 5d 96 3e 97 a3 04 be 23 d6 9b 3e
       0.2018447 0.29367858 -0.1295303 0.3043681
0000b0 9b 03 ff bd 6e e9 89 3e c6 5a 10 be e3 ab cb 3d
       -0.124518596 0.26935905 -0.14097127 0.09944894
0000c0 4e 01 0a 3e 34 81 aa be ac 22 d6 3d 86 be 29 3e
       0.1347706 -0.333017 0.10455832 0.16576585
0000d0 5a 5a 15 bd ce 03 1f 3e ba e4 61 bd 95 5a 8a 3d
       -0.03646312 0.15528795 -0.05514977 0.067555584
0000e0 dd df a2 3d 4c 4e 89 bd 9e a8 50 be 24 42 67 3d
       0.07952855 -0.06704387 -0.20376822 0.05645956
0000f0 a9 a8 77 3c f1 7f 53 3c e7 4b 57 3d b5 18 83 bd
       0.015115895 0.012908922 0.05256262 -0.06401197
000100 82 fc ef 3d b3 6c 10 be e0 bd bb bd 99 96 f7 3d
       0.11718084 -0.14103965 -0.09167075 0.12089271
000110 ab be 02 3e ec 8e d6 bd 8c fb 15 3d 0e 73 dc bd
       0.12768047 -0.10476479 0.036616847 -0.107641324
000120 6b db cd bd 90 bb 26 be 2b af 04 be b6 f7 b9 3d
       -0.10051616 -0.16282487 -0.12957446 0.0908045
000130 59 f0 98 bd 0a dc 91 3d 66 39 4f be 1a 54 32 3e
       -0.07467718 0.07122047 -0.2023674 0.17414895
000140 42 7e 8f 3b 4a 2e b6 3b 11 2f df 3c 94 d3 85 3e
       0.004379065 0.0055597173 0.027244123 0.26137984
000150 6f d1 87 be 19 4d 40 bd 5a a2 aa be cc ec 3c bd
       -0.26526973 -0.046948526 -0.3332699 -0.046124265
000160 c1 85 21 3e 56 1f 27 3e 3e 32 38 be e6 d0 16 3e
       0.1577368 0.16320547 -0.17987916 0.14728126
000170 9d c9 97 bd 05 a7 12 be f6 0d 86 bd 15 96 92 bd
       -0.074115016 -0.14321525 -0.065456316 -0.07157532
000180 6c bd 47 be e9 ca 80 3c f0 1a 51 be 0f 71 f2 3d
       -0.19505852 0.015721755 -0.20420432 0.118379705
000190 1d 07 33 be 7f 8a 50 bd 82 8d aa 3d 22 16 ce bd
       -0.17483182 -0.05091333 0.08327772 -0.10062815
0001a0 07 cc d8 bd 2b 71 23 3e b7 fa ac 3d f7 cc a5 3d
       -0.1058579 0.15961139 0.084462576 0.080957346
0001b0 e4 21 97 be 43 6c 2f 3d 34 c7 c8 bd be 0d 2b 3e
       -0.29518044 0.042827856 -0.0980362 0.16704461
0001c0 5f 9b b3 be a7 cd a3 3e 0b 60 f4 3d 5c 48 6b 3d
       -0.35079476 0.31992838 0.11932381 0.057442054
0001d0 46 66 01 bf 18 37 1c 3d 62 1d 3d 3c 54 5e 0f be
       -0.5054668 0.03813848 0.01154265 -0.14000827
0001e0 f3 34 61 be b5 de 3e be ad c9 1a be 1e b6 eb bd
       -0.21992855 -0.18639643 -0.15115996 -0.115093455
0001f0 7b de d9 3c b9 ad 5c 3e 09 2f 40 3e 13 53 43 be
       0.026595345 0.21550645 0.18767942 -0.19074659
000200 ab 36 e9 bc e1 a9 98 3c 90 af 72 3c 1d 1b ad bd
       -0.02846845 0.018635692 0.014812365 -0.08452437
000210 e8 ff f6 3c f4 11 6e bd 53 70 3c 3e 2e aa 2f bd
       0.030151322 -0.05812259 0.18402223 -0.042886905
000220 8f eb cd bd ef 0f 7a bd f2 7b a5 bc c5 94 70 bd
       -0.10054695 -0.06105035 -0.020200703 -0.058735628
000230 93 e9 42 bd 1c 3b ba 3d 05 df c6 bd 95 78 5b 3d
       -0.047586035 0.090933055 -0.09710506 0.053581793
000240 36 5f b5 3c 65 90 69 be 5b 6c 4c 3e f0 1b 15 3e
       0.022140127 -0.22808988 0.1996321 0.14561439
000250 74 fa 81 3d f3 f0 c4 be 66 4a 0a bf 55 5d d2 3d
       0.06346598 -0.3846508 -0.54019773 0.10271708
000260 90 2b cf bd 77 17 d8 3d 60 9d 9a 3e 2d 3b 0a 3e
       -0.10115731 0.105513506 0.30198193 0.13499136
000270 47 4c 16 3e de df c8 3c 52 9f 38 be ea 5b 2f be
       0.14677535 0.02452081 -0.18029526 -0.17124906
000280 6d 0f c1 3e 03 c3 8c be b6 d8 0f 3d d3 91 50 3e
       0.3770708 -0.27492532 0.03511878 0.20368128
000290 96 fc 09 3e de 6d 24 bd 0a 63 30 3e 9c 3d eb 3b
       0.1347526 -0.04014384 0.1722528 0.0071789753
0002a0 f9 57 75 3d 70 ed 0b 3e af 5e d3 3d 1d c7 75 bd
       0.05989835 0.13664794 0.10320794 -0.060004342
0002b0 18 9c de bc d4 72 81 3d 42 f8 0e 3e d1 24 ea 3b
       -0.02717404 0.0632073 0.1396189 0.007145502
0002c0 84 8c 9d bc 8c 9b 75 3d 7d 29 4f bd 19 5b ed 3d
       -0.019232042 0.059962794 -0.050576676 0.11589641
0002d0 b8 f7 b1 3d f9 74 e8 bc 65 3a bc bd 42 c8 6a be
       0.08689827 -0.02837609 -0.091908254 -0.22927955
0002e0 34 be f1 3d 3b 3f f9 3d ef 46 51 3e de 01 19 3e
       0.118038565 0.121702634 0.20437215 0.14942119
0002f0 d0 ce 4d 3e 79 70 90 be 3f 08 e2 bd 9c dc 39 be
       0.20098424 -0.2821081 -0.11036729 -0.18150562
000300 30 84 26 3e f0 67 41 be a7 6a f3 3d 2b d9 80 3e
       0.16261363 -0.18887305 0.11885577 0.25165686
000310 c2 56 c4 be a4 ab 34 3e ff 0b a1 3d 7b c0 2e 3d
       -0.3834744 0.176436 0.07863616 0.042664032
000320 e6 b3 a0 3d 8e 73 0b be d4 66 08 bd 82 97 85 3e
       0.07846813 -0.136183 -0.03330119 0.26092154
000330 11 8f 32 be 23 28 df bd 32 ef 3a be 36 5c 1f bd
       -0.17437388 -0.10896327 -0.18255308 -0.0389063
000340 1d 06 13 be fb e6 bf bd 54 f2 98 bb 7e d5 2a be
       -0.14357801 -0.09370228 -0.0046675596 -0.16683003
000350 38 59 3b be 55 04 75 bd f0 e6 a6 bd 8f 25 8f bd
       -0.18295753 -0.059818584 -0.081495166 -0.069895856
000360 90 90 13 bc 41 8f 25 be 99 c1 0f bd 16 cc 5d be
       -0.009006634 -0.16167928 -0.03509674 -0.21659884
000370 44 14 6f bc a0 36 ee bb c2 32 7c be b6 f7 b6 be
       -0.014592234 -0.0072696954 -0.24628738 -0.35735863
000380 8c ab 24 3e 2f aa 02 be 49 79 88 be e2 8e 57 3d
       0.16081065 -0.12760232 -0.26655033 0.052626498
000390 0c ca 8c be 45 d7 82 3e 98 c8 34 be 38 15 6d 3e
       -0.274979 0.25554863 -0.17654645 0.23152626
0003a0 fc db 60 3e 55 30 60 3c cb 6c 70 bc 8e 82 08 be
       0.21958917 0.013683398 -0.014674376 -0.13331053
0003b0 ef 4b 0b be f9 7d 26 be b0 19 cc bc 9f cc 13 be
       -0.13603185 -0.16258992 -0.024914593 -0.14433526
0003c0 7b 16 49 3e 96 4e f4 bd 65 6e 60 bd 80 25 2d 3d
       0.19637482 -0.119290516 -0.05479278 0.04227209
0003d0 23 98 29 bb 24 e8 0e be d7 0d d5 bd 2d ef 27 3e
       -0.0025878034 -0.13955742 -0.1040303 0.16399832
0003e0 ef 7c b6 bd b1 18 c0 bd 81 02 a5 3d c1 c3 50 3d
       -0.08910548 -0.093797095 0.08057118 0.050967935
0003f0 ad 99 17 be d7 c6 66 3e 1f 87 b6 3d ad ad 13 be
       -0.14804716 0.22536789 0.08912491 -0.14421721

conv1.bias f4 [32]
000000 f4 a8 4f 3d 38 18 9a bd af cf 79 3d 5d 9a 28 3e
       0.050698236 -0.075241506 0.060989078 0.16465135
000010 21 3f 49 be b7 d0 fe 3c 6b da b3 3d 88 7f 78 bd
       -0.19652988 0.031105382 0.08781894 -0.0606685
000020 b5 aa 82 bd 9e ef bd 3d c1 a3 13 3d e7 90 40 3c
       -0.06380216 0.09274219 0.03604484 0.011753297
000030 67 25 b0 bc 67 f9 28 bd 9c da 39 3e e3 a4 c7 bd
       -0.02150221 -0.041253474 0.18149799 -0.097482465
000040 ed 56 c2 bd 70 36 45 3d a6 2c 15 bd 76 0d 8b 3d
       -0.09489236 0.04814762 -0.036419533 0.06789677
000050 7f f1 f4 3c 2f 3d 13 be af 2f 6c bd 79 f1 a1 3d
       0.02990031 -0.14378808 -0.057662662 0.079073854
000060 28 2a 3d be bf 80 41 3c 25 ed 26 bd 01 c2 a8 3b
       -0.18473113 0.011810481 -0.040753502 0.00515008
000070 4b cf 48 be 3e 3e 9f ba 8d f6 6f bd 9a e5 9f bd
       -0.19610326 -0.0012149287 -0.05858474 -0.07807465

conv2.weight f4 [64, 32, 3, 3]
000000 86 7a bf bd 03 fd 8d 3d 3c 6a 86 bd d3 ec 0c 3e
       -0.09349541 0.06933024 -0.06563231 0.13762216
000010 ef 50 2f be 82 aa 05 be 57 71 87 bd 59 6a 0a 3d
       -0.17120717 -0.13053325 -0.06613415 0.033792827
000020 fc 2a 98 3c 4c 3e 0a be 5b db 16 bd b1 87 8d 3d
       0.018575184 -0.13500327 -0.036830287 0.06910647
000030 cc 2a 29 be 98 16 86 bc 6e f5 20 3d 7d b6 a4 3d
       -0.16520232 -0.016368195 0.03929656 0.080426194
000040 e8 86 81 3b 5f 8e da 3d 82 0d 87 3d 5e 00 da bd
       0.0039528497 0.106716864 0.06594373 -0.10644601
000050 90 9c 14 bd 55 5c 6a 3d e2 0f c3 3d b3 bd 25 ba
       -0.036282122 0.05721696 0.09524514 -0.0006322518
000060 63 61 2e be 68 79 ce 3b 01 41 21 bd a8 98 b7 bd
       -0.17029338 0.006301094 -0.039368633 -0.08964664
000070 b6 ac 22 bd f2 00 49 3d 51 b3 ed bb 41 75 86 3d
       -0.03971549 0.049073167 -0.007254042 0.06565333
000080 d3 22 aa 3c 5c 31 d2 3d c0 fc 60 3d 5c c5 99 3d
       0.020768559 0.10263321 0.05492854 0.075083464
000090 a0 77 87 bd 5c 76 a2 bb 93 38 1f bd 79 0f b9 3c
       -0.066146135 -0.004957957 -0.038872313 0.022590386
0000a0 22 cf 33 3e f8 a5 29 3d a1 cc fe bc 35 dc c8 bb
       0.17559484 0.041418046 -0.031103434 -0.0061297663
0000b0 fd b8 de bd b5 fa 08 be 86 9d 10 bd 68 59 d3 bd
       -0.108751275 -0.13376887 -0.035306476 -0.10319787
0000c0 c0 15 8e 3d d8 f6 82 bd 48 f4 da 3c b7 b6 83 3d
       0.06937742 -0.06394738 0.02672781 0.064313345
0000d0 24 ba 5e 3d ff 49 3f bb 6c e9 ec bd 6c e2 bd bd
       0.054376736 -0.0029188392 -0.11567959 -0.09271702
0000e0 7f 22 18 bd 9c 37 86 bc 68 89 17 3c 2c e1 e1 3d
       -0.037142273 -0.016383938 0.009249069 0.11029276
0000f0 e7 82 1f 3e 3b a5 11 3e f5 d6 9f 3a c2 81 70 b9
       0.15577279 0.14223187 0.00121948 -0.00022936522
000100 00 e7 1d bd ba b4 6c bb 05 98 d2 bc dc 99 8a 3c
       -0.038550377 -0.0036118464 -0.025707254 0.016919069
000110 32 bf 48 3e 01 bf c8 bd 8d 9d c4 bd cb fa 43 3d
       0.19604185 -0.09802056 -0.09600363 0.047846597
000120 46 63 56 bd 30 bc 44 be ed b6 5f 3d 28 e3 e9 3c
       -0.05234077 -0.19212413 0.05461781 0.0285507
000130 d9 91 cf bd 19 c6 1c 3d 2b c2 4a bd e3 5c 41 3d
       -0.1013524 0.03827486 -0.04950158 0.047207724
000140 d2 43 2e bd ec 63 f2 bc e9 72 1a bd e7 bf 27 bd
       -0.042545147 -0.029588662 -0.037707243 -0.040954497
000150 c3 78 8d bd a6 96 7f 3d d5 fc cb 3b ea 87 95 bd
       -0.06907799 0.06239953 0.0062252083 -0.07301314
000160 21 74 79 3d 26 b0 89 3a 41 ca 81 3d 04 58 8f 3c
       0.060901765 0.0010504767 0.06337405 0.017498024
000170 b1 71 f0 3b 90 70 34 3d fe cf 36 be 1c 39 8f 3c
       0.007337772 0.04405266 -0.1785278 0.017483287
000180 93 2c 86 bd 62 f2 05 3d e3 8e 3b 3d d8 89 ef bb
       -0.065514706 0.032701857 0.045790564 -0.0073101334
000190 cf 85 65 3d 90 31 ed bd ac be 58 bd 61 b0 0c 3e
       0.056035813 -0.11581719 -0.052916214 0.13739158
0001a0 c4 98 56 3c 4f 87 8c bc b7 63 1e 3e 86 70 1b bd
       0.013097946 -0.017154364 0.15467726 -0.037949108
0001b0 33 e4 f6 bd fc 33 bc bd b4 6f 38 bd 37 c3 4b 3d
       -0.12055244 -0.09189603 -0.045028403 0.04974672
0001c0 f6 8b 1e 3c 9a 7a 5c 3d ed 6d 14 be 82 a2 1f 3e
       0.009676924 0.05382786 -0.14495058 0.15589336
0001d0 15 62 86 3d e1 7f e5 bd 58 d6 d0 3b 44 49 df bd
       0.065616764 -0.112060316 0.006373208 -0.10902646
0001e0 0b aa ff bd c1 4a b9 3c 66 77 04 bc d6 d6 10 3d
       -0.12483605 0.022618653 -0.008085107 0.035361134
0001f0 2f 14 ef bc 12 02 30 3b 32 60 86 3c 62 77 e9 bc
       -0.029184429 0.0026856703 0.016403291 -0.028499309
000200 c5 86 20 bd 4a 51 a4 3d 70 33 b6 3d 88 48 a4 3d
       -0.039191026 0.08023317 0.0889653 0.08021647
000210 38 ef 2c 3d ad da 25 3d b1 b5 22 3d 35 9d 8b bd
       0.042220324 0.04049175 0.039724056 -0.06817094
000220 17 01 87 be 28 85 cb bd 55 1f 4a bd c6 77 95 bd
       -0.2636802 -0.09937507 -0.049346287 -0.072982356
000230 11 63 b3 3d 24 fc 1b bd b4 28 93 bd 74 6d 0d 3e
       0.0875913 -0.038082257 -0.07185498 0.13811284
000240 99 cb 82 3d b4 ca 43 3d c2 04 1a 3e 2a b8 1b be
       0.063864894 0.047800735 0.15040877 -0.15206972
000250 d9 48 80 bc a5 79 87 bc 0d 5d 87 3c 78 ca d3 bd
       -0.015659736 -0.016537497 0.016523862 -0.10341352
000260 1a a7 ca bc 8e 94 a5 3c 16 bc 0e 3e 11 f2 19 bc
       -0.024737883 0.020212438 0.13938937 -0.009396092
000270 1f 05 7a bd 61 45 66 3d 9b 61 02 3e 12 6e 22 3e
       -0.06104004 0.05621851 0.12732546 0.15862301
000280 3b 24 2a be 02 51 96 bd a6 5a 3a bd c2 d4 3f 3d
       -0.16615383 -0.0733967 -0.045496605 0.04683376
000290 01 83 4c 3d 82 8f af bd 1e ca 80 3d 9c fa 27 3e
       0.049929623 -0.08572294 0.06288551 0.16404194
0002a0 ba 89 a2 bc 72 94 31 3d 1e 0b 4a 3d 61 bf a0 3d
       -0.019841064 0.04335446 0.04932701 0.07849003
0002b0 a2 3b 3a be 6a 5c 1f bc 4c 92 c4 3c cf 33 bb 3d
       -0.1818681 -0.009726623 0.023995541 0.09140741
0002c0 9c 6f 12 be b8 d2 5c bd 91 59 99 3d 65 e8 0d 3e
       -0.14300388 -0.053911895 0.074877866 0.13858183
0002d0 58 16 de 3d 53 ea 19 3e 6b 11 a0 3d 32 33 6f be
       0.108441055 0.15030794 0.07815822 -0.23359373
0002e0 6f 15 51 3c 38 ff 17 bc d0 f4 41 3c 1f 6f 72 3d
       0.012761458 -0.0092771575 0.011838153 0.059188005
0002f0 64 6d 89 3d 48 8a 4b bd 15 3c b6 bd 18 60 ad 3d
       0.06710318 -0.049692422 -0.088981785 0.08465594
000300 9f f9 a3 3d f8 5c 2c 3d 3b ef f2 bc f1 d2 98 3c
       0.08006596 0.04208085 -0.02965509 0.018655272
000310 ff fa ab bd f3 d7 1c 3e a3 34 b2 bd 79 6d 3c bd
       -0.08397483 0.15316753 -0.08701446 -0.04600284
000320 73 15 60 bd 9f df 5c bd 81 9d 2a 3e 5b e7 3a 3d
       -0.054707956 -0.0539242 0.16661645 0.045630794
000330 29 4d 87 bd d5 4b 00 3e b0 90 cb 3d 9f e9 1c be
       -0.06606514 0.12528928 0.09939706 -0.15323494
000340 d4 72 7b bd 44 cb ae bd ed 82 dd bc 67 89 15 3e
       -0.061388806 -0.085348636 -0.02703997 0.14603196
000350 4e 6d 3b bd c5 77 0c bb 1b 9f 6b 3d d3 9f 85 3d
       -0.045758538 -0.0021433693 0.05752478 0.06524625
000360 93 71 dd 3c d3 ac 35 bb 2b 10 d9 3d b1 9d f3 bd
       0.027031695 -0.002772142 0.10598787 -0.118953116
000370 ae 49 02 3e 1f bf 22 3c 24 8b 63 bd 58 ab 15 3c
       0.12723419 0.009933262 -0.055552617 0.00913509
000380 f3 db 7b 3d ea 05 d0 38 9e a0 9c bc 3b 77 61 bd
       0.061489057 9.9193145e-05 -0.019119557 -0.055045348
000390 f8 b6 c3 3d f6 e7 61 be 1c 5e 6c 39 f2 19 46 bd
       0.09556383 -0.22061142 0.00022541772 -0.048364587
0003a0 69 cb 22 3e 14 6e be 3d 30 4d 70 bd 49 9b 6a bd
       0.15897907 0.092983395 -0.05866736 -0.057276998
0003b0 c8 7f a6 bd 51 6c ab bc 12 31 2c bd 8b 2b d1 bb
       -0.08129841 -0.020925673 -0.042038985 -0.0063833646
0003c0 66 f7 5d 3d f8 7f 88 3d 04 77 97 bd e3 83 23 be
       0.054191016 0.06665033 -0.07395747 -0.1596828
0003d0 ed bd 77 3d 28 fd 89 3d 48 1d 5a be ea 70 f6 bd
       0.06048386 0.06737739 -0.21300232 -0.120332554
0003e0 9e 13 e0 bd 13 0e 2a be e9 24 54 be 52 3e c6 bd
       -0.10941242 -0.16606931 -0.20717205 -0.096798554
0003f0 82 21 95 bd 70 19 ca 3d 41 6e 21 bd 2e ed 56 3d
       -0.07281782 0.09868133 -0.039411787 0.052472286

conv2.bias f4 [64]
000000 cb 19 84 bc 04 e8 62 3c 78 0f 58 bd 24 c0 eb 3d
       -0.01612558 0.013849262 -0.052749127 0.11511257
000010 c2 a7 c3 3d d3 2c c9 bc 56 3e 01 be d4 86 29 3d
       0.09553482 -0.024557507 -0.12621436 0.041388348
000020 0b 33 56 3d a9 9b 6a bd 15 97 d3 bd 93 ee e1 bd
       0.052294772 -0.057277355 -0.10331551 -0.110318325
000030 f8 9d 66 bd 02 83 21 be b1 0f 2f bb 25 34 cc bc
       -0.056302994 -0.15772632 -0.0026712234 -0.024927208
000040 ef 49 c7 3d 6e bf 0d bc 97 8e 12 3d d3 4b 97 bd
       0.097308986 -0.008651597 0.035780516 -0.07387509
000050 a1 06 6e 3d b0 1d b6 3c 18 f5 8d 3c 2d 74 2c 3b
       0.05811179 0.022230953 0.017328784 0.0026314363
000060 96 a4 7b 3c bd 8d 6f bd 1f 2f eb bb ac fc 80 bc
       0.015359065 -0.05848478 -0.007177248 -0.015745483
000070 13 33 1a bd b1 4b 90 bd 48 d4 3d bd 3c ed 9a 3c
       -0.037646364 -0.07045687 -0.046345025 0.01891195
000080 0c 59 b0 3c 78 dd 8a 3c 69 0f 60 bd 20 b7 cd 3d
       0.021526836 0.016951308 -0.054702196 0.10044694
000090 81 cc 2c bc 47 6c c8 bc 0a d7 c5 bb 87 05 74 bd
       -0.010546804 -0.024465693 -0.0060375975 -0.059575584
0000a0 14 46 73 bd f8 73 6e bd 35 93 72 bd 11 63 8d bc
       -0.059393004 -0.058216065 -0.05922242 -0.017259153
0000b0 c6 74 d3 bc c1 89 31 3d bd 9c 14 bd 52 0e a9 bd
       -0.025812518 0.043344263 -0.03628229 -0.082546845
0000c0 85 d7 32 bd 34 fd 45 bd 8e fc 11 3d 7c b8 1b 3d
       -0.043662567 -0.048337176 0.035641246 0.038017735
0000d0 59 72 0a bb 35 09 7b bd 79 cb 24 bc 42 1a 7a bc
       -0.0021125285 -0.061288077 -0.010058277 -0.015265049
0000e0 62 60 b5 bd af 0a 23 bb 7c c0 1e 3d c1 5c f0 3c
       -0.08856274 -0.0024878194 0.038757786 0.029341104
0000f0 88 6d 9a bb d2 03 bb bd 49 b5 5b 3d 8c af 4b bd
       -0.004712764 -0.09131588 0.053639684 -0.04972796

conv3.weight f4 [128, 64, 3, 3]
000000 f4 1b 8c bc df 8c 35 bc 50 07 77 3d 24 07 27 bd
       -0.017103173 -0.01108095 0.060309708 -0.040778294
000010 8c 07 9e bd 7e de 01 bd d1 58 7a bd 94 c6 38 bc
       -0.07716283 -0.031706326 -0.06111986 -0.011277813
000020 4e 45 09 3c 0b f3 43 bd e7 0c f6 3d 8c 2f 9b 3d
       0.00837834 -0.047839206 0.1201418 0.07577428
000030 8e c7 68 bd 3e 7e 0a 3c 0c 5e 3f bd c0 15 83 bd
       -0.056830935 0.00845295 -0.04672055 -0.06400633
000040 46 a2 76 bd da 54 5a 3c 0e 13 54 bc f8 75 a4 3d
       -0.06021335 0.013325894 -0.012943996 0.08030313
000050 89 de 0b 3d 90 1d 57 bc cf 91 12 bd 9c a0 e1 3c
       0.034147773 -0.013129607 -0.035783585 0.027542405
000060 a7 b3 15 3d c6 90 05 3e 63 ab 0a bd b4 d4 a2 bc
       0.036548283 0.13043508 -0.033854853 -0.019876815
000070 4b d0 6c bd 33 11 ea 3c 97 3f 1b bd 58 c3 4b 3b
       -0.05781583 0.028572654 -0.03790244 0.0031091776
000080 f9 fe a0 3d e6 7f 03 bd ad 3b 63 3d 80 aa 66 bd
       0.07861132 -0.032104395 0.055476833 -0.056314945
000090 80 cf 05 37 4c b3 64 3d fa 2d 37 bd 1f 4f 3d bc
       7.97573e-06 0.055835053 -0.04472158 -0.0115545085
0000a0 e0 41 3a bd fd e1 01 3c 04 63 f9 bb cc ab 96 bd
       -0.04547298 0.007927415 -0.0076106805 -0.073569864
0000b0 ed 2b 57 3d d2 30 39 bd 16 f9 f4 3c d8 7b f5 bb
       0.052532125 -0.045212574 0.02990393 -0.00749157
0000c0 8e 51 7b 3b 53 ba bf bd 29 aa 62 3c 8c 97 ad 3d
       0.003834817 -0.093617104 0.013834515 0.08476171
0000d0 04 a9 31 3d cd b5 6d bd d4 b5 b7 bc 25 e5 3c bd
       0.043374076 -0.058034707 -0.02242557 -0.046116967
0000e0 fe da 8e 3d 73 7a af bd ba 92 8c bc a2 fa 92 3b
       0.06975363 -0.08568277 -0.017159808 0.004485444
0000f0 9a 85 84 3d 92 b0 8f 3d a5 e1 78 3d 5f b1 09 bd
       0.06470795 0.070161 0.060762066 -0.03361642
000100 a0 ed 50 39 d5 5c 04 3d 3a ef 8e 3d c3 0e 80 3c
       0.00019924948 0.032315094 0.069792226 0.015632039
000110 2d 13 e6 3c d0 0a 40 3e e0 8d e4 bb b9 8c f6 3c
       0.028085316 0.18754125 -0.0069749206 0.030096399
000120 47 4f 48 bb 1a 69 93 bd 08 cd ee bd a3 c3 b6 3d
       -0.003056483 -0.07197781 -0.116602 0.089240335
000130 85 d5 8f 3b e0 f9 63 3c 49 6d e2 bd 93 1b 9b 3d
       0.004389467 0.013914555 -0.11056001 0.07573619
000140 95 87 32 bc 20 5b b7 b9 55 74 93 3d dc 4f d1 bb
       -0.010896583 -0.00034972373 0.07199923 -0.006387694
000150 3e e7 03 3c 09 5c de 3d 2b d4 34 3d 8b ae a5 3d
       0.008050738 0.10857398 0.04414765 0.08089932
000160 f5 f1 df 3c 93 a1 76 bc fc ca 70 3d 2b 8d df 3c
       0.027337054 -0.015053171 0.05878733 0.027288994
000170 d0 63 09 3e a4 f8 23 3c b8 d4 92 3c 1b c9 44 bc
       0.13416982 0.010008011 0.017923698 -0.012010838
000180 a4 4c 82 3d 88 85 cf b8 8e 0d cf bc 08 7a 88 39
       0.06362274 -9.895401e-05 -0.025275018 0.00026030862
000190 5c d4 2e 3d cb c6 46 3c 23 f2 a1 3d d4 e0 db 3d
       0.04268299 0.012132357 0.07907512 0.10736242
0001a0 93 1e 60 bc b7 51 47 3e d7 8d 05 bd 26 8f a9 bd
       -0.013679164 0.19464765 -0.032605972 -0.082792565
0001b0 4c 2e 37 bd cc 43 3f 3c bf 56 0d bd b0 f2 77 3b
       -0.044721887 0.011673879 -0.034506556 0.0037833862
0001c0 96 7f 7c bd 3e bc 2b bc 8f 88 03 bc f7 17 5d 3d
       -0.061645113 -0.010481892 -0.008028164 0.053977933
0001d0 37 35 cb bc 20 a7 1f 3a 44 a1 83 bd d1 57 0b 3d
       -0.024805648 0.0006090272 -0.06427243 0.034019295
0001e0 7b 48 9b 3d 6f 48 95 3c 24 1a 9b 3d 56 1b 28 bd
       0.07582184 0.018223016 0.07573345 -0.041041695
0001f0 d1 4b fa bc 28 ee e8 3b 46 c4 be bc f3 df 82 bd
       -0.03055373 0.0071084686 -0.02328695 -0.06390371
000200 fe 72 de 3c 9f 12 04 3c 6b 3b 11 3d e8 cf 4e 3d
       0.027154442 0.00806108 0.035457056 0.050491244
000210 28 b8 f2 3c 14 fa 3b 3d d5 85 9c 3d dd 24 15 bd
       0.029628828 0.04589279 0.07642714 -0.03641211
000220 4c 5e 95 bd a5 93 34 3d 90 a3 bb bc dc 3e 3f bc
       -0.07293376 0.044086117 -0.022905141 -0.011672702
000230 6b 23 30 3d 58 97 87 3b a8 65 a3 3c 2c b4 d4 3d
       0.043002527 0.0041379146 0.019945934 0.103859276
000240 46 55 da bc ea c1 3e bd 90 93 f9 3c be d4 ef 3b
       -0.02665199 -0.04657165 0.030465871 0.007319062
000250 80 7c 31 bd 16 f9 4a bd d2 fb 84 bd 53 9c 39 bd
       -0.043331623 -0.049553953 -0.064933434 -0.045315098
000260 dc aa 3e bd ba 02 db bd 55 0b 94 3c 86 b9 eb bd
       -0.046549663 -0.106938794 0.01807181 -0.11509995
000270 2b 57 fd bc 34 6c 6f bd 4a 8d e4 3d c1 49 b5 bd
       -0.030925354 -0.0584528 0.11159761 -0.08851958
000280 fd c9 bc bc 8a c5 11 bd 6c cf cf bc 07 44 7c bc
       -0.023045534 -0.03558878 -0.025367461 -0.015397078
000290 62 fb 15 bc 70 46 37 bc 60 6d a4 3a 90 9d db 3c
       -0.009154173 -0.011186227 0.0012544803 0.02680853
0002a0 43 de 11 3e 3b 20 5f 3d 5b be 8a 3d 45 79 92 bb
       0.14244942 0.054474097 0.06774589 -0.004470023
0002b0 f9 48 82 bd f7 ee 18 3d 68 c3 a5 3c fa fd 65 3d
       -0.06361575 0.03733727 0.020234779 0.056150414
0002c0 a8 c9 2f bd 9b 30 09 3d c0 06 c0 3d ac 74 28 3d
       -0.042916924 0.03349362 0.093762875 0.041126892
0002d0 9f 35 b4 3c 29 bf 85 bd d6 ea 59 bd 9e 3f f2 3c
       0.021998225 -0.065306015 -0.053202473 0.02957135
0002e0 d8 a9 bc 3d a8 b1 5f bd 9d 0e ae bd 55 b1 72 bd
       0.092120826 -0.054612786 -0.08498881 -0.05925115
0002f0 16 17 26 3c 49 14 90 3d 21 a4 18 3c 1a 34 85 bc
       0.01013734 0.07035119 0.009316475 -0.016260196
000300 69 50 6c bd 14 96 ca bc df 99 0b bd a2 d0 ec 3c
       -0.057693873 -0.024729766 -0.03408229 0.028908078
000310 5c f3 6b bd 9f df 07 3d 00 81 d2 bc e7 a9 27 bb
       -0.057605132 0.033172246 -0.025696278 -0.0025583447
000320 2e 4e ac 3d c8 95 f4 3c 02 3f c0 3c 5d 20 b0 bd
       0.08413349 0.029856578 0.023467544 -0.08599923
000330 45 fb 79 3d fa ab 5b bd 6b 97 47 bd df 84 4c 3d
       0.061030645 -0.053630807 -0.048728388 0.049931403
000340 66 6a c5 3d 3b 92 0b 3d f4 6d 10 bd b9 ab e1 bd
       0.096394345 0.034075003 -0.03526111 -0.110190816
000350 60 51 4c bd fa 0b 62 3c 6d 21 02 bd f9 50 f8 3c
       -0.049882293 0.013796801 -0.03177016 0.030312048
000360 d1 ed 08 bd 23 36 da bc fc e9 20 bd 84 be 9d bd
       -0.033429924 -0.026637143 -0.039285645 -0.077023536
000370 27 07 73 bc 4e 30 11 3d 92 33 45 bd 66 de 60 bc
       -0.014833248 0.035446458 -0.048144884 -0.013724899
000380 e9 5b 3a 3d 1b 77 3f bd 67 06 9b 3b 86 b7 02 3c
       0.04549781 -0.046744447 0.004730988 0.007978326
000390 ec 45 ba 3d 99 91 e8 bb fb 58 b1 bd 37 25 71 3d
       0.09095368 -0.0070974347 -0.0865955 0.05887338
0003a0 9e b5 80 3d d8 de 76 3c 79 2d 37 3d 0c c8 40 bc
       0.06284641 0.0150677785 0.0447211 -0.011766445
0003b0 b0 8a d8 3d c0 dd 01 bd a3 50 2d bd f1 0d 2d 3d
       0.105733275 -0.031705618 -0.04231323 0.042249624
0003c0 1b 08 2b 3d 0a 06 d2 3d 15 ab 49 bd 9a 17 7e 3c
       0.041755777 0.10255058 -0.049235422 0.015508557
0003d0 bf 53 b0 3d 3e 58 12 3d 80 f5 9e b9 aa 6f 2a bd
       0.08609723 0.035728686 -0.0003031902 -0.041610397
0003e0 12 8f 69 3d 1c 97 10 3e 0a 3d 0f bc 4e 7f 36 bd
       0.057021208 0.14120144 -0.00874258 -0.044555
0003f0 bf ae 48 bd a8 f0 54 bd 1a 86 e2 3d c7 fe 85 3d
       -0.048994776 -0.05198732 0.11060734 0.065427355

conv3.bias f4 [128]
000000 96 c2 57 bd 21 c0 0a 3d 09 fe 25 b8 d9 cb db 3c
       -0.052675806 0.033874635 -3.9575654e-05 0.0268306
000010 61 5d 5b 3d 69 1b 6b 3d 19 b1 86 3c e3 d4 1b bc
       0.05355585 0.057399187 0.016441869 -0.009511205
000020 28 07 d5 3d 0c 85 79 bc cb b6 39 3c 31 70 c8 3b
       0.104017556 -0.015229475 0.011335085 0.00611689
000030 be 41 0a bc b5 40 21 3d d1 7b a9 3d 6e d5 8c b9
       -0.008438526 0.03936835 0.08275569 -0.00026861898
000040 6c 41 05 bc 2f 91 96 3d 92 39 10 b8 e3 89 e0 3d
       -0.008133274 0.0735191 -3.4385892e-05 0.109638
000050 98 40 1d 3e ee cd e3 3d d6 74 0f 3b 7d 5a c7 3d
       0.15356672 0.11123262 0.0021889708 0.09734056
000060 db 83 a0 bd a7 f6 18 bc 43 bb a0 3d 66 ed 11 3d
       -0.078376494 -0.00933615 0.07848217 0.03562679
000070 c6 33 ae 3d d6 07 b8 3d bd 61 ab bd 0d ad 95 bd
       0.08505969 0.089858696 -0.083682515 -0.073083974
000080 68 81 2e 3d 18 7b 91 3d 66 1c 11 3d 64 a1 67 3d
       0.04260388 0.071035564 0.035427473 0.0565504
000090 1c fc 06 3d 47 c2 e0 ba cb f7 78 3d 73 1a 2d 3d
       0.032955274 -0.0017147743 0.06078319 0.042261552
0000a0 f0 3d cb bc 2e e0 cc bd 19 68 4d af 71 81 a6 b9
       -0.024809808 -0.100036964 -1.8681624e-10 -0.0003175843
0000b0 d0 c5 8e 3c ba f8 39 bd 01 28 f3 3c 63 49 a5 3d
       0.017428309 -0.04540322 0.029682161 0.08070638
0000c0 05 01 ca b9 fc e2 63 3a 24 fa 4a bd a7 6b e9 3d
       -0.00038529202 0.0008693186 -0.04955496 0.11397486
0000d0 c1 a8 41 bd 7b e9 91 3d 96 aa 11 3d 44 e4 95 3d
       -0.047280077 0.07124611 0.035563074 0.07318929
0000e0 2c 6f 94 3a 58 59 22 ba a1 4c 73 b1 57 4a 2a bd
       0.0011324636 -0.0006193123 -3.5404712e-09 -0.041574802
0000f0 e7 e1 2b ba df 5c 7f 3d c1 fa a0 3d ba cd 20 bc
       -0.00065567944 0.06234443 0.078603275 -0.009814674
000100 92 42 aa 3d 7e 6e f7 3c 4e ad fc 3b dc 97 c2 3c
       0.083134785 0.030204054 0.007711089 0.023754053
000110 b1 d5 5c 3d 75 b7 0b 3e ad 66 f2 bd 87 88 c6 ad
       0.05391473 0.13644202 -0.1183599 -2.2570624e-11
000120 82 e2 b8 3d 0e e7 a0 3d da 3c f5 3b 7f f2 84 3d
       0.09027578 0.0785657 0.0074840607 0.06491565
000130 3b 4a 96 3d 3f 8c 8b bc 2f 15 98 3d 14 10 01 bb
       0.07338377 -0.017034648 0.074259154 -0.0019693421
000140 d2 72 fc bc 74 f8 10 bc 02 b8 96 3d ec bf 19 3d
       -0.03081647 -0.008848298 0.073593155 0.037536547
000150 3c 69 06 3d 1f 55 32 3d 06 48 b4 3d 06 3c bf 3c
       0.032815203 0.04353821 0.088028 0.023344051
000160 4f ee df 3b 62 43 17 3d 07 11 87 3c ee e2 7d 3c
       0.0068338285 0.036929496 0.016487611 0.015495999
000170 fb 60 9c bc 73 6c 14 3d 06 63 b2 3d 4a fd 55 bc
       -0.019089213 0.036236238 0.087102935 -0.013060877
000180 e7 7a b1 3c ad 94 2c 3d 35 4f 04 bd 04 0d 9b ac
       0.02166505 0.042133976 -0.0323021 -4.40681e-12
000190 97 bd 5d 3d 3d b9 b5 3d 7f e7 af 3d b6 b1 24 3c
       0.054135885 0.08873222 0.08589076 0.010052135
0001a0 d8 2b ad 3d 56 53 63 3d d4 ae a9 ba 2b 40 06 b7
       0.08455628 0.055499397 -0.001294578 -8.001963e-06
0001b0 9b 22 f8 3d c4 9e 14 bd 68 68 93 bc 4a 7e 98 b7
       0.121159755 -0.036284223 -0.01799412 -1.817862e-05
0001c0 3d 8f cd bd c3 ca 22 bd ac cc f2 3c 6c 89 49 3d
       -0.10037086 -0.03974415 0.02963861 0.04920332
0001d0 7b 1a 8b bd 56 12 8d bd 2f bd a4 bd 8c 0e 32 bb
       -0.0679216 -0.06888263 -0.080438964 -0.0027169315
0001e0 d2 d9 9d 3d 68 aa 4d bb 9f 51 39 3c 97 5a 29 3d
       0.077075616 -0.0031382088 0.011310964 0.04134616
0001f0 4b 84 1d 3c 50 74 36 bd 80 87 b1 3d 60 81 13 ba
       0.009614061 -0.044544518 0.08668423 -0.00056268834

act_conv1.weight f4 [4, 128, 1, 1]
000000 66 2c 83 bb 9a 2b 22 3e 0e 69 a7 0c f4 e8 0b 3d
       -0.0040030954 0.15836945 2.5793652e-31 0.03415771
000010 ea 79 77 3e 40 06 f4 3d 29 48 b4 3d 1e 89 51 be
       0.241676 0.119152546 0.08802826 -0.20462462
000020 47 1a 24 be a5 1d 1c 3e 05 ea 21 3e 20 59 49 3e
       -0.16025649 0.15245683 0.15811928 0.19662905
000030 d6 37 f1 bd 73 ae f1 3d e2 db 00 be 98 14 35 be
       -0.11778228 0.11800852 -0.12583879 -0.17683637
000040 39 b8 68 be ff cf 07 3e 9c b7 a0 a7 ed bf a6 3d
       -0.22726525 0.13262938 -4.460799e-15 0.08142076
000050 18 f1 c0 bd 68 cf ba bd 12 f7 c2 bd 5f 42 1d be
       -0.09420985 -0.09121591 -0.09519781 -0.1535735
000060 6b 52 11 3e 18 a3 9f bb 47 e1 99 bd c5 5f fc 3d
       0.14191596 -0.004871737 -0.07513671 0.12322954
000070 ee 6f 44 3d d8 11 8c 3d 99 e8 6d be 94 d2 2b be
       0.047958307 0.06839341 -0.2323326 -0.16779548
000080 1e 7e 4c 3e 96 c1 0b be 17 82 b6 bd 85 4b ae bd
       0.19969985 -0.13648066 -0.089115314 -0.08510498
000090 74 ed ec bd ae 10 c6 32 5e 93 34 bd 94 12 32 be
       -0.11568728 2.3057819e-08 -0.044085853 -0.173899
0000a0 94 46 ba be e3 38 cb bd 56 27 1a 80 bc d4 e3 9c
       -0.36381972 -0.0992296 -2.401834e-39 -1.507659e-21
0000b0 6d e8 da 3d a3 69 20 3e 48 47 4c bd 9f 1d c0 3e
       0.10688863 0.15665297 -0.049872667 0.375226
0000c0 f2 fa 00 80 f6 19 4e 3d 36 cc 3d be 05 7f 2f 3d
       -9.0022e-41 0.050317727 -0.18534932 0.042845745
0000d0 35 4a ed bd 0d de 22 3d b3 be 26 3e 6b 2c c3 3c
       -0.115864195 0.039762545 0.16283683 0.023824891
0000e0 1b fd c6 3e a0 7c 21 80 44 af 2c 00 36 de fb bc
       0.3886498 -3.075278e-39 4.103635e-39 -0.030745607
0000f0 87 83 10 80 79 6e 1a 3e 94 60 41 be 7b 33 9f 3e
       -1.516551e-39 0.15081204 -0.18884498 0.31093964
000100 48 cd 37 bd 12 20 f9 3b f1 7a 1d 3d a8 92 1f be
       -0.044873506 0.0076027 0.038447324 -0.15583289
000110 d7 57 99 3d d0 a2 44 3e a4 48 ca bd 43 95 1b 80
       0.07487457 0.19202733 -0.09877136 -2.533103e-39
000120 a5 58 f6 bd 6d 55 d6 3d a1 61 f1 bd f1 16 96 bd
       -0.12028626 0.104655124 -0.11786199 -0.073285945
000130 2f b7 7f be 52 95 15 3d ee a0 63 3e 29 0c be 31
       -0.24972223 0.036519356 0.22229359 5.5311102e-09
000140 37 90 e9 bb 22 5d 17 3d e9 59 02 3e c0 a5 52 bd
       -0.0071277875 0.036954053 0.1272961 -0.051427603
000150 2b f4 08 3e 58 83 1e 3e 7d 24 c5 bd f7 f1 45 3d
       0.13374393 0.15479791 -0.096261 0.04832646
000160 3d da 4a 3e 9f 42 ba bc 9e f3 26 3e dc 97 83 be
       0.19809814 -0.022736846 0.1630387 -0.25701797
000170 25 86 a4 bc 47 aa aa 3e 60 b3 d4 3d 08 47 93 3d
       -0.020083496 0.33333036 0.103857756 0.071912825
000180 61 26 4d 3e c8 2f 7c 3c 1b 92 b8 3e 78 7f 10 80
       0.20034172 0.015392251 0.3604897 -1.515095e-39
000190 8e 08 6e bd a6 0c 78 3d 1b de 79 3c ad bb 09 3d
       -0.058113627 0.060558937 0.015250708 0.033626247
0001a0 62 26 51 bd e5 4e ed bd e6 7d 5d be da 68 1e 80
       -0.051061995 -0.115873136 -0.21630058 -2.792679e-39
0001b0 fc 6a c6 3d d8 a7 ff 3d 6d 0e 95 be ae 84 64 a6
       0.096883744 0.124831855 -0.29112568 -7.9283205e-16
0001c0 07 4e d1 3d bb 50 95 3e 82 1c 7a 3e 8f 23 30 bd
       0.10219961 0.29163155 0.24424937 -0.04300266
0001d0 0f 2b c3 3c db 77 bd 3e 18 74 60 3e 23 df 39 3e
       0.023824243 0.37005505 0.21919286 0.18151526
0001e0 8b b8 f2 bd 19 28 14 00 db c7 cd be ef e3 36 3e
       -0.11851605 1.851094e-39 -0.4019154 0.17860387
0001f0 e2 04 83 3e 66 1b 28 3e d9 41 e1 3c c9 3e 60 3d
       0.25589663 0.16416702 0.027497219 0.054747377
000200 4a 49 8f 3c dc fc 87 3e 86 38 18 00 19 d0 22 3e
       0.017491002 0.26560104 2.224329e-39 0.15899695
000210 26 6d 8c 3e 39 b1 1b 3e 55 09 1f be 3a 21 38 3e
       0.27427024 0.15204324 -0.15530904 0.17981425
000220 58 57 8c bc 6d d9 94 3c 72 20 a5 3e 60 dd 0d 3e
       -0.017131492 0.018170083 0.32251316 0.13853979
000230 85 0c 78 bd aa 0e 51 3e 61 c9 67 be 0d 56 44 3e
       -0.060558815 0.2041575 -0.22635414 0.19173451
000240 63 c2 67 3e 53 87 31 be 29 ae 22 00 9a f5 5d 3e
       0.22632746 -0.17336778 3.184884e-39 0.21675721
000250 b2 67 ff be 8c 17 3f 3e 70 a3 50 3d e6 72 37 3d
       -0.498838 0.18661326 0.050937116 0.04478731
000260 8a 53 d5 3d ca 0d cb 3d 18 8e d3 bd 8f de f3 bd
       0.104163244 0.099147394 -0.103298366 -0.11907684
000270 74 66 97 bd 5a 5f 93 3d 00 01 9f 3e b8 e7 66 3d
       -0.07392588 0.07195921 0.3105545 0.056373328
000280 68 8c 1b 3d c9 a5 5e 3e da ac 40 3e 9e fa c6 bd
       0.0379757 0.2174293 0.18815938 -0.0971577
000290 c3 b9 d5 bd 32 81 c0 26 83 40 86 3d 68 3f 2f 3e
       -0.10435822 1.3357695e-15 0.065552734 0.17114031
0002a0 ad 81 9b 3d 14 49 b8 3e 4b 88 27 00 33 c7 00 80
       0.07593093 0.35993254 3.630477e-39 -7.1459e-41
0002b0 da bc 56 3d b2 3f 1c 3e 1d 42 3a 3e d6 a7 5e bc
       0.052426197 0.15258673 0.18189283 -0.01358982
0002c0 22 d5 22 00 8b 8c 35 3e 31 93 b0 3e 97 87 15 bd
       3.198865e-39 0.17729394 0.34487298 -0.03650626
0002d0 57 9d a2 be 5a 19 d0 3d 08 c1 5b 3e 96 a7 92 3c
       -0.31760666 0.101610854 0.21460354 0.017902177
0002e0 38 8b 71 be 15 82 1a 80 08 83 1f 80 59 91 05 3f
       -0.23588264 -2.434388e-39 -2.893906e-39 0.5217491
0002f0 06 62 2f 00 46 70 4f 3e 6f 11 a1 be 8b fe 33 3e
       4.351433e-39 0.20257673 -0.31458613 0.17577569
000300 ee f0 92 3e 4c a2 a3 3c 81 ae 0d 3e 13 eb 65 3e
       0.2869944 0.01997485 0.13836099 0.22452955
000310 56 6d 00 bc d2 09 30 be 8d 71 a8 3e 55 c5 2e 80
       -0.007838568 -0.17191246 0.32899132 -4.295222e-39
000320 8b 83 84 3d a1 4d 58 be 65 05 7b 3d 65 4e 24 3e
       0.06470402 -0.21123363 0.06128444 0.1604553
000330 7f 39 3c bd db 76 43 be c8 64 4e be 49 3d 1c 80
       -0.04595327 -0.19088309 -0.20155632 -2.593379e-39
000340 a9 85 2c 3d 61 70 52 3e a6 88 df bd 21 7f ba 3d
       0.042119656 0.20550682 -0.109147355 0.09106279
000350 e5 6f 3c 3e 09 ce 1d 3e a9 6f 92 3b ce 33 e9 ba
       0.1840206 0.15410627 0.0044688773 -0.0017791928
000360 21 be ba be 0b 74 ca bd bd d4 31 be c4 cf 7a 3d
       -0.36473182 -0.09885415 -0.1736631 0.061233297
000370 32 55 7f 3a 4a 8e ec be ef a0 b6 be 7a 84 f2 3d
       0.0009740173 -0.46202308 -0.35669658 0.11841674
000380 06 88 5c 3e a8 53 c4 bd 15 a7 1b 3e 00 37 27 00
       0.21536264 -0.09586269 0.15200455 3.601315e-39
000390 28 e6 d8 bd 2c 08 45 be ac 70 15 3e 21 d5 21 be
       -0.10590774 -0.19241399 0.14593762 -0.15803958
0003a0 17 b6 f3 3d 2c 3a 7d 3e 04 2f b0 3d 26 59 04 80
       0.11899965 0.24729222 0.086027175 -3.99322e-40
0003b0 75 20 b2 bb 9d ef 20 bf bb 94 bd be 16 b6 04 1c
       -0.005435998 -0.6286562 -0.37027535 4.3910477e-22
0003c0 09 01 11 be 59 93 db bc 3c e8 5d 3e fc d9 04 3e
       -0.14160551 -0.02680366 0.21670622 0.1297378
0003d0 51 ec 31 be 93 47 0f 3e b0 3b 90 3e 9b df c2 be
       -0.17375304 0.13992147 0.28170538 -0.38061222
0003e0 9f 7a 29 be 0d 10 39 89 81 d0 89 be 56 d1 0d be
       -0.16550682 -2.2276112e-33 -0.26916888 -0.13849387
0003f0 57 f7 e9 3d f9 f7 c7 be 79 84 55 be db 55 79 3e
       0.114241295 -0.39056376 -0.20851316 0.24349158

act_conv1.bias f4 [4]
000000 68 98 b7 3d 3d 56 bb 3d ef ba f1 3c 3f 89 0c 3e
       0.08964616 0.09147308 0.029508082 0.1372423

act_fc1.weight f4 [25, 100]
000000 a5 85 4e bc 24 45 9a bc c6 be 04 3d 40 f6 1d 3b
       -0.0126051055 -0.018831797 0.0324085 0.0024103075
000010 b3 41 18 3e 7c 9d 13 3d fc 6a 0c 3d 39 78 68 3d
       0.14868812 0.03603886 0.034281716 0.05675528
000020 14 b0 8c 3d 3a 18 06 3d eb 36 1d bb 26 85 ac 3d
       0.06869522 0.032737948 -0.0023989032 0.084238335
000030 8b ae fd bc 88 66 10 bd a6 e1 0a 3c 53 c3 32 be
       -0.030967018 -0.03525403 0.00847665 -0.17457323
000040 9b d2 6e 3d 46 44 a2 bd 3e 0e 03 bd f9 87 31 bc
       0.058306318 -0.079231784 -0.031996004 -0.010835641
000050 4a 3d 78 be 8e 41 86 3e f7 dc 62 3d 15 8d 8b 3d
       -0.2424213 0.2622189 0.05538651 0.06814019
000060 56 9e 2b bc b5 05 d3 bc 02 a2 0b be be ac 0f 3d
       -0.010474762 -0.025759557 -0.1363602 0.03507685
000070 00 6a 30 3c e4 c2 9f 3d 05 66 c3 3d ce e0 4e 3c
       0.01076746 0.07800844 0.09540943 0.01262684
000080 98 63 3b 3c 19 8f 05 be 4a da 82 3c 6d 96 40 3d
       0.011437319 -0.13042869 0.015973229 0.047018457
000090 ee 4c ab bd 01 99 8a 3d 19 ab 84 3b a9 0c df bd
       -0.083642825 0.067674644 0.0040487167 -0.108910866
0000a0 db 4e d8 3c 05 b1 ec 3d ae 5b ce 3d 88 b2 4d 3d
       0.026404789 0.11557201 0.1007608 0.05021909
0000b0 ed 0b 2c 3d a6 0a ed 3e 66 e5 b2 be e6 4a 50 be
       0.04200356 0.46297187 -0.34940642 -0.20341071
0000c0 6f 53 3b 3b 75 5c 03 3e 3c db 3f be 8d 4d f4 3d
       0.0028583666 0.12828238 -0.18735975 0.11928854
0000d0 5c 03 38 be ae e7 d2 3d be 17 c4 bd 5d 19 6c 3d
       -0.17970031 0.10298096 -0.09574841 0.057641376
0000e0 ba 9a b4 3d 6a 9e 91 bc 20 94 ac 3c c8 71 b4 3b
       0.08818574 -0.017775733 0.021066725 0.005506728
0000f0 3b 95 ac 3d 7a f6 9d bd 58 63 6d 3d 7b f9 7c bd
       0.08426901 -0.07713027 0.05795607 -0.06176136
000100 d3 24 cc bd 19 d5 8e 3e ef fc 14 be e2 9f 04 bc
       -0.09967961 0.27896956 -0.14549612 -0.00809476
000110 07 e2 a0 3d 70 9c 12 3e ad ad 8b bd a3 ea 87 3e
       0.07855611 0.14317489 -0.068202354 0.265462
000120 9b c5 f2 bd 9c df 1f 3d c6 83 8f 3d c7 04 07 bc
       -0.118540965 0.03903161 0.07007556 -0.008240885
000130 d7 73 90 bd 8f 9a 51 bd 17 7a a8 3d 3e 45 d9 bd
       -0.07053345 -0.05117279 0.08226412 -0.1060891
000140 92 e8 aa 3d bd ae 9e bd d9 7b 56 3d f7 dd ba 3c
       0.083451405 -0.077481724 0.052364204 0.02281092
000150 5a ca 71 3d 12 62 a1 bd df a6 ee 3c 2d af 4d 3c
       0.059030868 -0.078800336 0.029132305 0.012553972
000160 53 ec df 3d f7 4a d9 bc 0a e5 7c be 71 1c d3 bc
       0.10933747 -0.026525004 -0.24696746 -0.025770398
000170 25 cc ea bd a6 69 d3 3c 29 44 8a bd 12 77 02 be
       -0.11464719 0.025807213 -0.06751282 -0.12740734
000180 73 fe 92 be 5c bb 69 be 26 36 61 be 2c a9 1e bc
       -0.28709754 -0.22825378 -0.21993312 -0.009683888
000190 26 79 5a bc d0 5e 8f bc f0 0e 79 3d ac 45 67 3d
       -0.013334548 -0.017501265 0.06080526 0.05646293
0001a0 c6 78 be bc 6b e0 61 bd 38 13 45 3e 08 c4 a4 bd
       -0.023250949 -0.055145662 0.19245613 -0.080452025
0001b0 38 68 8f bc dc 8f 83 bd 31 d8 ab 3d fb 85 2d 3d
       -0.01750575 -0.064239234 0.083908446 0.0423641
0001c0 69 4f 53 3b b8 47 35 3d 21 31 0c 3d 36 03 e7 3d
       0.0032243377 0.04425785 0.03422654 0.11279909
0001d0 79 a3 8a be 07 12 5f 3e 29 7c 94 bd c6 85 cd 3d
       -0.27077845 0.2178422 -0.07250244 0.10035281
0001e0 2c e1 c6 be 78 66 c7 bd ce 77 22 3e d1 ca 36 bd
       -0.38843668 -0.09736341 0.15866014 -0.044627015
0001f0 cc d7 07 be 5d 97 d2 3a bd 92 56 3c e4 45 4c 3d
       -0.13265914 0.0016066838 0.013096509 0.04987134
000200 35 f7 06 be 6a 72 7d 3d ca ac 62 3d 76 fc ac ba
       -0.1318024 0.061876692 0.055340566 -0.0013197798
000210 56 a4 c1 3c 47 ce 26 3d 1b 08 94 bb 0f 53 78 bd
       0.023637932 0.040724065 -0.004517568 -0.060626086
000220 ce 4a 9f bd 23 f8 b8 3c 00 e1 d6 bc 3b 2f 58 3d
       -0.0777794 0.022579258 -0.026230335 0.052779417
000230 78 68 04 3e 14 c6 58 3c 2b 22 b1 3c 2a f9 c0 3d
       0.12930477 0.013230819 0.021622738 0.09422524
000240 29 ef 52 3d c6 bb af be 8d 8c c4 3e 02 67 a3 be
       0.051497612 -0.34322947 0.38388482 -0.31914526
000250 5b 5a 11 be a3 c5 1a 3e 36 ca 76 bd c8 95 2c bd
       -0.14194624 0.15114455 -0.060251437 -0.04213503
000260 2c ff df bd 4e 4e f9 bc 78 a3 05 3b 63 63 c0 3d
       -0.10937342 -0.030432846 0.0020391624 0.093939565
000270 b6 96 7c bd a2 4b 7d 3d b9 2b 90 bc e6 13 22 be
       -0.061667167 0.061839707 -0.017598974 -0.15827903
000280 30 1f 30 3e 4e 19 21 bd 4f 44 6d be 0f 4d 0f ba
       0.17199397 -0.039330773 -0.23170589 -0.00054665
000290 7a c2 4a bd 30 c3 c4 3d 0c 73 4c 3e 97 01 b1 3d
       -0.049501874 0.096075416 0.19965762 0.08642881
0002a0 a1 2c cf 3c 33 bf d5 3d 47 fe f4 3c ab 7f b9 3d
       0.025289835 0.10436859 0.029906405 0.09057554
0002b0 5a 32 e4 3d 24 5c 20 bd 2e d2 80 3d ff 10 00 be
       0.11142416 -0.039150372 0.062900886 -0.12506483
0002c0 40 44 d8 bd 87 6c a1 bd 05 70 f1 3c 22 94 4b bd
       -0.10559893 -0.07882028 0.02947236 -0.049701817
0002d0 9d 59 26 bd b4 18 d1 bd a9 62 80 3d 4f 85 6d 3d
       -0.040612806 -0.1020979 0.06268818 0.05798846
0002e0 67 1a 5d bd cb af 4b 3e ce cb d7 bd 92 97 08 bd
       -0.053980257 0.19891278 -0.105369195 -0.033347674
0002f0 20 64 a0 3c 05 1c cc 3d 02 16 12 bc 30 bc 48 be
       0.019578993 0.09966282 -0.00891638 -0.19603038
000300 0e f5 f2 3d 62 d3 79 bd bb 17 82 bd a5 8c 04 3c
       0.11863147 -0.060992606 -0.063521825 0.008090173
000310 04 c0 e7 bd d3 d8 c2 be f4 23 9c bd b7 c7 13 be
       -0.11315921 -0.3805605 -0.07624045 -0.14431654
000320 8a d3 da bd 14 1d 02 3c 22 25 be bb 24 62 bb bd
       -0.10684879 0.007941503 -0.0058027664 -0.09149578
000330 5b 95 ed bd e6 c4 7f 3d 9e 01 71 bd e7 d2 a8 3d
       -0.11600753 0.062443636 -0.058839433 0.082433514
000340 3c 7e 9b bb 3e 9f 30 3e 1e b4 e9 3d 39 22 46 bd
       -0.004745273 0.17248246 0.11411308 -0.04837248
000350 f3 62 b1 3d 7a 2f 04 3e 72 42 ac bc a8 25 04 3e
       0.08661451 0.12908736 -0.021027777 0.1290499
000360 cb b3 63 3c 17 07 76 be 2b 28 20 3e c7 1b 37 ba
       0.013897846 -0.24026142 0.15640323 -0.0006985035
000370 e5 ec 84 3e 07 23 97 bd 14 d1 50 3d f1 5f 4b 3e
       0.25961986 -0.07379728 0.050980642 0.19860817
000380 f1 0e 03 bd 00 fa 26 3e 68 3e 0d 3c 3c d7 1b bd
       -0.03199667 0.16306305 0.008620836 -0.03804706
000390 24 51 a3 38 22 46 da 3d 25 65 2e bd 93 08 ac bd
       7.787559e-05 0.10657908 -0.042576928 -0.08400073
0003a0 0d c9 85 bd a4 aa 11 bc f2 22 3b be 3d 4a 85 3d
       -0.06532488 -0.008890782 -0.1827505 0.065083005
0003b0 2e 97 8c bc 44 8b 1d bd 91 47 d2 3c 5c 9e 71 bc
       -0.017161932 -0.038462892 0.025668891 -0.0147472285
0003c0 6f dc 05 3d 8c 24 bf 3d 0e d5 10 3e a4 74 79 3d
       0.032680925 0.09333143 0.14143774 0.060902253
0003d0 da 6f df 3a a4 ab 12 3e 2c 2a e4 be 42 5f b7 3e
       0.0017046884 0.14323288 -0.44563425 0.35814863
0003e0 f5 a8 72 be b7 91 3a be 68 1f 2a be a2 7c 6e be
       -0.23697264 -0.18219648 -0.16613543 -0.23289731
0003f0 e4 4c 9b bd 41 c2 72 bb 9f 58 5f bd 2b 06 30 be
       -0.07583025 -0.0037042054 -0.054527875 -0.17189853

act_fc1.bias f4 [25]
000000 18 10 c9 bd 42 55 97 bc 53 35 39 ba 7b 34 db bd
       -0.09817523 -0.018473271 -0.0007065136 -0.10703369
000010 51 96 0b be ce 4e 01 be af 98 7c 3d 44 2e 94 bd
       -0.1363156 -0.12627718 0.061669048 -0.07235387
000020 fa c1 93 3d d2 99 bb bd 2a 40 0c 3c e6 70 75 3b
       0.072147325 -0.09160198 0.00856022 0.0037451326
000030 3e d3 45 3e 31 ef 0e bd 46 4e 0b 3c f8 af aa bd
       0.19318864 -0.03489608 0.008502549 -0.083343446
000040 be 66 e7 3d 8e 19 f4 bc 3b b4 36 3c fd b5 76 3c
       0.112988934 -0.029797342 0.011151369 0.015058038
000050 3a a8 7e bd 58 28 ed bd d7 a6 07 bb 30 f1 da bc
       -0.062172152 -0.115799606 -0.002069881 -0.026726335
000060 bf ad 9c bd
       -0.07650327

val_conv1.weight f4 [2, 128, 1, 1]
000000 65 36 26 00 dd 3f 5c b9 87 08 2f 80 27 04 4f b9
       3.509262e-39 -0.00021004626 -4.319327e-39 -0.00019742605
000010 f9 f6 2b 80 d4 bd e8 b8 6c 23 23 ba a1 99 ce ba
       -4.037523e-39 -0.0001109798 -0.0006223235 -0.0015762338
000020 e6 d4 ca b8 07 e8 ab b9 4a af a3 b9 6c 3a 2b b9
       -9.671766e-05 -0.00032788535 -0.00031220383 -0.00016329595
000030 4d ed fd b9 3d f5 c3 b2 b0 ec 0b 80 f4 a3 89 ba
       -0.00048432723 -2.281251e-08 -1.095098e-39 -0.0010501132
000040 20 8e 27 b6 db 80 2e b9 5f 83 46 02 0c 0d c3 b8
       -2.4967667e-06 -0.00016641936 1.4584444e-37 -9.300755e-05
000050 7a 87 17 80 31 98 b4 ba 94 fa 1e 00 e5 5f 65 ba
       -2.160816e-39 -0.0013778267 2.844955e-39 -0.0008749946
000060 2a 43 be b9 da 46 7b b0 01 78 80 b8 06 4e b7 b9
       -0.00036289665 -9.1413954e-10 -6.125868e-05 -0.00034962612
000070 f8 68 8c ba a6 0a bf b7 9b 5a 89 b6 77 76 56 ba
       -0.0010712435 -2.2773933e-05 -4.093466e-06 -0.0008181105
000080 b6 91 d1 b9 dc c2 ec b9 35 3d 02 80 89 b6 88 ba
       -0.0003997215 -0.0004515861 -2.05628e-40 -0.0010430376
000090 49 2b 19 80 ad 93 09 80 3b 2b 76 ba 3e 9e 98 ba
       -2.311415e-39 -8.79496e-40 -0.0009390597 -0.001164384
0000a0 a4 7c 07 00 2e 7f 90 a2 9c 04 0a 00 2a 11 20 80
       6.87561e-40 -3.9165935e-18 9.20008e-40 -2.944893e-39
0000b0 cf c5 26 ba 0d 36 0f 00 ac 16 3a ba 1f 1e 1c ba
       -0.0006361873 1.396922e-39 -0.0007098715 -0.0005955416
0000c0 eb 62 1c 00 a9 07 6a ba b6 a3 e6 b9 98 c2 56 bb
       2.606879e-39 -0.0008927533 -0.00043990993 -0.0032769796
0000d0 8f bb 27 00 ab 59 d6 b7 42 ce 00 b9 01 4d a2 ba
       3.648868e-39 -2.5552543e-05 -0.00012283868 -0.0012382568
0000e0 ef 4d ce ad 06 5a 16 80 c9 79 1f 00 52 21 03 00
       -2.3454098e-11 -2.052675e-39 2.890589e-39 2.8746e-40
0000f0 08 ab 24 00 48 d5 81 b9 20 4b aa 8b 93 fa 91 b8
       3.367432e-39 -0.00024763704 -6.5594654e-32 -6.960812e-05
000100 33 b9 0f 00 4f f7 10 b9 ae ee 9e b7 23 89 94 ba
       1.44397e-39 -0.0001382504 -1.8946212e-05 -0.0011332374
000110 1c 5e 9b ba a3 b3 8a b8 14 4a 3e ba 83 ab 22 00
       -0.0011853608 -6.613813e-05 -0.00072589633 3.183934e-39
000120 01 f4 28 ba 3f b6 fe b9 5f cf 23 ba 4d eb d2 b9
       -0.0006445051 -0.0004858244 -0.0006248857 -0.00040229634
000130 21 8a 8e ba 09 09 a4 b3 67 0b 00 ba 5e e0 1c 80
       -0.0010874906 -7.6384886e-08 -0.00048845116 -2.651882e-39
000140 34 13 0d 00 c9 a6 f0 b7 bb 8b 60 ba 19 c1 a3 ba
       1.20075e-39 -2.8687895e-05 -0.00085657433 -0.0012493461
000150 02 60 b7 ba fe 8e 14 bb 90 de 15 ba e9 51 92 b9
       -0.0013990405 -0.0022668238 -0.00057170633 -0.00027908318
000160 42 eb 04 80 9b d9 0a b9 a2 e8 09 b6 ce 81 25 80
       -4.51737e-40 -0.0001324177 -2.055e-06 -3.444479e-39
000170 fe e1 1b 80 3a f1 22 b1 11 6c 55 af 3c 16 4c 00
       -2.560629e-39 -2.3711224e-09 -1.941063e-10 6.987474e-39
000180 6a 29 63 ba 7b 9b 1b bb 08 f6 26 80 27 92 09 80
       -0.0008665534 -0.0023743797 -3.578008e-39 -8.78949e-40
000190 82 ff 4b ba 69 ce 52 ba 7e 66 45 bb e9 50 ea b9
       -0.0007781909 -0.0008041622 -0.0030120905 -0.0004469224
0001a0 51 51 16 b8 b8 d4 5e ba ec a2 47 0e d0 94 99 00
       -3.583852e-05 -0.00085003255 2.4607088e-30 1.4104215e-38
0001b0 fc 79 03 bb 38 0b 05 b7 f2 e0 b2 9d 0e a6 58 80
       -0.0020061722 -7.93003e-06 -4.7348796e-21 -8.141093e-39
0001c0 43 8b 01 00 80 f5 2e 00 06 a4 01 b8 de fd be ba
       1.41793e-40 4.312502e-39 -3.0908755e-05 -0.0014571508
0001d0 0e f4 2a b2 d8 0c b6 aa 86 e0 4c b4 61 d3 16 b3
       -9.950794e-09 -3.2338607e-13 -1.9080662e-07 -3.5116845e-08
0001e0 85 27 8b b9 e4 7d 27 00 d5 82 16 b3 45 98 19 ba
       -0.0002654159 3.626745e-39 -3.5043588e-08 -0.0005859177
0001f0 40 9a 40 b9 27 6b 21 16 a1 b3 46 b5 ef 90 61 ba
       -0.0001836801 1.3039288e-25 -7.402214e-07 -0.00086046656
000200 54 40 54 be a0 47 b5 3d 29 43 fa 90 de 20 fc 3d
       -0.20727664 0.08851552 -9.871109e-29 0.123109564
000210 ec ce 41 3c c3 1c 39 3d 87 00 a6 bd 73 53 87 3e
       0.011829119 0.045193445 -0.08105569 0.26430854
000220 74 97 c8 3d 98 c7 04 be 27 90 96 3d 90 d3 46 be
       0.097945124 -0.12966764 0.07351714 -0.19416642
000230 a2 f9 36 bd 54 f7 16 bd 8e ea b4 be 0e 5c b5 3d
       -0.044671662 -0.036856964 -0.353352 0.08855449
000240 09 33 ba bd 7f b9 8b 3d 99 61 aa b7 5e ef be bd
       -0.090917654 0.0682249 -2.0311027e-05 -0.093229994
000250 e6 5b e0 3d da 64 46 3d 73 01 98 be 82 ed 22 3e
       0.10955028 0.048436023 -0.29688606 0.15910915
000260 3f 27 c5 bd f9 49 c6 bd 87 d3 b7 3d 99 56 93 3d
       -0.09626626 -0.09682078 0.089758925 0.071942516
000270 77 b2 a7 bd c7 29 86 bd 8b 48 4a be fb 51 a1 3e
       -0.08188336 -0.06550937 -0.19754235 0.3150786
000280 3b 93 be bd 50 44 d2 3d f4 9f 86 3c 01 1c c2 bd
       -0.09305426 0.10266936 0.016433693 -0.094779976
000290 e2 57 aa be b1 82 e4 ba c1 0c cb bd 83 b2 62 3d
       -0.33270174 -0.0017433969 -0.09914542 0.055346023
0002a0 53 cd 0c bf 0d 96 02 be 9e 1b 09 26 8e 75 ee b9
       -0.550008 -0.12752552 4.756885e-16 -0.00045482483
0002b0 38 2b 58 3d b7 bb 8d be 2f 2f 8b 3d 88 8e 3d 3d
       0.05277559 -0.27682278 0.06796109 0.046278507
0002c0 b0 21 f6 0a 49 9d b2 3c a9 78 0b be 59 c4 04 3e
       2.370161e-32 0.021803515 -0.13620247 0.12965526
0002d0 4f ab 80 bd b7 62 9f 3d 5f 71 6f bd 5c 35 05 3e
       -0.062826745 0.077825 -0.05845773 0.13008636
0002e0 16 06 2c bd 08 29 32 af 5a 60 03 02 7d 73 10 3e
       -0.04199799 -1.6203583e-10 9.652012e-38 0.14106555
0002f0 91 97 ac af b6 c4 75 bd fd 58 c0 bd 30 c2 06 3c
       -3.1394312e-10 -0.06000205 -0.09391973 0.008225009
000300 ae a0 37 be fa 43 e5 bd 88 0d cf bd 2d fe 88 3d
       -0.17932388 -0.11194606 -0.10110003 0.06689105
000310 62 34 6b bd 47 31 ad 3d c2 66 24 be 0d 64 0e 80
       -0.057423003 0.084566645 -0.16054824 -1.321588e-39
000320 69 9b c4 3d a4 1c 29 bd 01 0d d0 3d 49 c8 e2 3d
       0.09599955 -0.04128708 0.1015873 0.110733576
000330 e6 e8 90 3d 13 2c 0a 3e 47 2f 45 3e 8f 34 4e bb
       0.07075672 0.13493375 0.19256316 -0.0031464433
000340 df 90 ab 3c 26 0f 7e bd fa 99 10 3e a6 94 d8 3d
       0.020943103 -0.062026165 0.14121237 0.105752274
000350 a2 f8 00 3e f6 68 c2 3d b3 09 e4 3d 99 b3 10 3e
       0.12594846 0.09492676 0.111346625 0.14131011
000360 78 ed 88 be 0a 6f b9 bb ba 30 ea bd 6e bd ef bd
       -0.26743674 -0.005658989 -0.11435075 -0.11706053
000370 9c 0b d7 bb 0e 78 60 3e 08 0e d1 3c 8b 3a de be
       -0.0065626632 0.21920797 0.025519386 -0.4340404
000380 4a 4a 21 bd 01 8b 11 3e c2 ca c9 bd de 8d 09 27
       -0.03937749 0.14213182 -0.09853126 1.9089476e-15
000390 e8 a3 43 3e 81 8f ad 3d 92 11 e1 3d 25 80 5f be
       0.19105494 0.08474637 0.109896794 -0.21826227
0003a0 99 cb 2f 3c db 08 8c 3d 64 d7 7d be 1c 24 ae b6
       0.010729694 0.068376265 -0.24789196 -5.189808e-06
0003b0 56 bf 02 3e e7 80 1d bc 55 69 4b bb ed 0e e4 b5
       0.12768301 -0.009613252 -0.0031038125 -1.6991668e-06
0003c0 7d b5 c4 3e cf f6 90 be d0 8a cf 3c f2 27 e0 bd
       0.38419715 -0.283133 0.025334746 -0.10945119
0003d0 88 4f 6a 3e 6c a5 82 bb 4d 72 5d be c3 39 a3 3d
       0.22881901 -0.003987005 -0.21625634 0.079700015
0003e0 e0 91 f0 bd 56 72 9d a8 af 9b f8 3c f8 df a8 bd
       -0.117465734 -1.7480087e-14 0.030347673 -0.08245844
0003f0 c0 7e 66 bc 20 3b 62 bd 6e 70 0d be 44 f5 41 3e
       -0.0140683055 -0.055232167 -0.1381242 0.18941218

val_conv1.bias f4 [2]
000000 5b 73 5f bb d4 a6 0e 3e
       -0.0034095857 0.13930827
