Gomoku-server/model/best_policy885.pth (torch, 480821 bytes, 15 tensors)

conv1.weight f4 [32, 4, 3, 3]
000000 c0 1e 51 3d 1b dc 71 be a2 c8 01 3e 21 30 86 3d
       0.051054716 -0.2361912 0.12674192 0.065521486
000010 af 6c 8b 3e 45 f9 61 3e c2 65 78 bd ab 14 b8 3d
       0.27231357 0.22067745 -0.06064392 0.08988317
000020 2f 82 8a 3d ff a1 9a be 50 e6 7a bd f7 90 30 be
       0.06763112 -0.30201718 -0.0612548 -0.172428
000030 a9 75 41 bd 10 d6 c5 bc de 15 d4 bd d7 37 0a be
       -0.04723135 -0.024149925 -0.10355733 -0.13497864
000040 3f 2b 18 3e ea c0 85 be de ae 26 3c dd 69 d3 3d
       0.14860247 -0.26123744 0.0101735275 0.10322926
000050 6c 1b ec bc dd a1 b2 3d 8f 95 e5 bc 55 37 9b 3d
       -0.02882167 0.08722279 -0.028025417 0.07578913
000060 a2 24 9d 3d 45 0c 56 bd b7 a4 11 3e 9d 41 eb bd
       0.07673003 -0.052257795 0.1422299 -0.11487124
000070 06 a6 de bd 15 7e a1 bb e3 bf 92 3d c1 73 8a 3d
       -0.1087151 -0.00492836 0.07165506 0.067603596
000080 62 d8 2d bc 1e 80 ff bd c8 f1 7b 3d 3d 0e cb bc
       -0.010610672 -0.12475608 0.061509877 -0.024787063
000090 62 7b 2e 3e 41 7c a9 bc e1 88 1b 3d 48 ce 87 3e
       0.17039254 -0.020689132 0.037972335 0.26524568
0000a0 ae 51 49 3e 90 03 69 bc 9a 9b 8c bc 41 71 ef bd
       0.19660065 -0.014222041 -0.01716404 -0.11691523
0000b0 33 3f 0c 3e c6 78 13 bd 3b 35 93 bd 3b d8 7e 3e
       0.13695984 -0.03600385 -0.07187887 0.24887173
0000c0 6a 04 53 bd 8b e4 e5 3d 4e 95 93 be 18 98 d5 bc
       -0.05151788 0.11225232 -0.28824848 -0.0260735
0000d0 02 6c ba 3c ae 5e ee bd f8 7e ac bd f9 a2 92 3d
       0.02275658 -0.116391525 -0.08422655 0.07159991
0000e0 5a 97 34 3e 09 f0 18 3d ba c3 88 be be 58 d1 3d
       0.17635861 0.03733829 -0.26711828 0.10222004
0000f0 25 ab b7 bc 8f 7e db bd 28 89 11 3e 31 43 73 bd
       -0.022420475 -0.107174985 0.14212477 -0.05939025
000100 ad 67 a0 3d 96 56 36 be a7 4f cc 3d 89 78 5d be
       0.078322746 -0.17806467 0.0997613 -0.21628012
000110 4b 7d a1 3d 75 7c 4f 3d 42 c8 39 bd 76 39 0e 3d
       0.07885226 0.0506558 -0.045356996 0.034722768
000120 7a 10 7c 3e 75 5a 33 bd 70 f6 04 bd 29 3f 10 3e
       0.2461566 -0.04378744 -0.032461584 0.14086594
000130 fe 19 1a be 43 2f 20 be 1a 41 e8 bc 3f cc fc bd
       -0.15048978 -0.15643029 -0.028351355 -0.12343644
000140 e1 ed c3 bd f4 5b 85 bc 83 d5 27 3e fc 84 60 be
       -0.09566856 -0.016279198 0.16390042 -0.2192573
000150 7b 15 21 3e c6 60 f4 bd 91 40 d0 bc a1 da 58 be
       0.1573085 -0.119325206 -0.025421413 -0.2117715
000160 6d da 29 3d 2b fa 95 3e 17 6f 84 3b 78 9e c1 3d
       0.041468073 0.29292426 0.0040415633 0.09454054
000170 88 8e b6 bd e9 e3 13 be 37 c2 c0 3b 5b d6 a9 bc
       -0.089139044 -0.1444241 0.005882527 -0.020732095
000180 6e a1 2e 3d 66 07 a7 bd 35 54 12 bd 6e 7f 9d bd
       0.04263442 -0.08155708 -0.035724837 -0.07690321
000190 59 ee 05 3d 3f 0f 0e 3e 7d ae 08 3e 30 4a b9 3b
       0.03269801 0.13873003 0.13347812 0.005654596
0001a0 03 4b b2 bd 6e 9c c3 3c e5 1c 58 bd a1 4b 32 3e
       -0.087057136 0.023878302 -0.05276193 0.17411663
0001b0 18 8a 2a 3d 9e 04 27 3e af ab 18 bd 0f 77 5f 3e
       0.041635603 0.16310355 -0.037273105 0.21822761
0001c0 fb 0c ab 3e db 77 56 bc ba 0c 2c be 47 d9 39 3d
       0.3340834 -0.013090099 -0.1680173 0.045373227
0001d0 14 51 d4 be 7c 9e 01 be 71 c4 98 bd 04 4b 3a be
       -0.41468108 -0.12658113 -0.07459343 -0.18192679
0001e0 7d b2 81 bd 8c 8c 4e 3d fa 1c ce 3d 7a b8 59 3e
       -0.06332872 0.050427005 0.100641206 0.21261778
0001f0 ba 94 79 bd af 4f 9a 3c 2b 2f 58 ba 1d 5e 6a bd
       -0.060932852 0.018836824 -0.00082467747 -0.05721866
000200 65 63 04 3d 7d 2f ec 3d b6 d0 fc bc 67 e8 e9 3d
       0.032321353 0.11532495 -0.03086124 0.1142128
000210 7b fa af 3d fa 2b fd 3c 02 57 8a bd 4f 5a 65 bd
       0.08592697 0.030904759 -0.06754877 -0.055994328
000220 e4 ab 0f 3d 9d 7b 4b bd 66 58 db 3b e5 b0 c1 3c
       0.035076037 -0.049678434 0.0066938875 0.02364392
000230 ac 3c b9 bd db bb 15 be ac 46 1a 3d 13 de 28 3e
       -0.09044775 -0.14622442 0.037665054 0.16490965
000240 c7 ff 08 3e b6 59 d2 bc 6b 30 19 3e 12 8e 8e bd
       0.13378821 -0.025677543 0.14959876 -0.069606915
000250 cc 99 3c bd 16 43 29 3e 2b 0f 81 3e 0d 1a 83 bd
       -0.04604511 0.16529498 0.25206885 -0.06401453
000260 11 d4 2c 3e b9 58 9f 3d ec 98 e4 bc 4b 2d 91 3e
       0.16877772 0.077805944 -0.02790495 0.28354868
000270 19 9d 41 bc 9d 06 47 be 7f 3d 1f bd 68 39 46 3d
       -0.01181724 -0.19436117 -0.038877007 0.04839459
000280 f9 71 1f 3e f0 4a 50 3e 19 85 5a bd 66 49 6c bd
       0.15570821 0.20341086 -0.053349588 -0.057687186
000290 5f 49 ee 3d 97 e2 31 3c 4b 82 c8 bd f6 41 7d bc
       0.11635088 0.010857246 -0.097904764 -0.015457621
0002a0 81 97 7f 3d c8 5c 78 bd 22 e1 91 3d 7b b4 25 be
       0.062400345 -0.060635358 0.07123019 -0.16182129
0002b0 56 35 03 3e e0 6b f5 bc 4b 38 c6 3c 1d 7f d5 bd
       0.12813315 -0.029958665 0.024196764 -0.104246356
0002c0 85 f0 38 bd c4 a1 1e bc e4 51 47 3b b9 2a ff 3c
       -0.045151252 -0.009682123 0.00304138 0.031148301
0002d0 a0 16 03 3d 76 61 bc bc bb c5 69 3e 43 95 5d 3e
       0.032004 -0.022995692 0.22829334 0.2163897
0002e0 80 b9 93 3e 0f 03 87 3e 78 d7 10 bc d9 f2 5c 3e
       0.28852463 0.2636952 -0.008840434 0.21577014
0002f0 9e 42 c2 3c 55 9c 28 be 1b 3c 8e bc 06 98 ed bd
       0.023713406 -0.16465886 -0.017362645 -0.11601262
000300 49 ce 64 bd 6e 39 44 bd 54 fd 20 be da ed 84 3d
       -0.05586079 -0.04790633 -0.15721637 0.06490679
000310 a2 f6 75 3c c2 d8 f9 bd 7e d0 96 bd 2b 5c fc bd
       0.015012415 -0.121995464 -0.073639855 -0.12322267
000320 2a 59 a3 3d 2e c4 db bc 5a 2b 4f 3d f3 6d c4 3d
       0.07975991 -0.026826944 0.050578453 0.09591284
000330 06 bd b8 bd 05 12 f9 bc 6a 37 85 bb a0 38 b6 3d
       -0.09020428 -0.0304041 -0.0040654438 0.08897519
000340 9a 7e 15 3e 14 38 0a be c1 b3 05 3e 9d cf d9 bd
       0.14599076 -0.13497955 0.13056852 -0.10635302
000350 13 53 dc 3d 16 96 05 be b0 e4 ce 3c ee 45 05 3e
       0.10758033 -0.13045534 0.025255531 0.13014957
000360 cd 67 f0 3b fd ce 8f 3d 64 fb e5 bd a7 d5 51 3e
       0.007336593 0.07021902 -0.112295896 0.20491658
000370 16 18 b3 3e 68 b5 30 3d d9 a5 54 3d 16 51 5d be
       0.34979314 0.043141752 0.051915977 -0.21612963
000380 9d 78 ae be 4d 74 1b be e9 59 a5 3d 54 d2 a0 3d
       -0.34076396 -0.15181084 0.080737896 0.07852617
000390 a3 b4 75 bd 39 51 81 bd 09 bf dc bd 36 42 84 bd
       -0.05998672 -0.0631432 -0.107786246 -0.06457941
0003a0 1c 1a 7b 3d a3 27 2b 3e c6 94 2a 3e 29 51 d3 bc
       0.061304197 0.16714339 0.16658315 -0.025795536
0003b0 9b b1 93 bd 83 fc e5 3d c6 9c 40 3b 87 00 7d 3d
       -0.0721161 0.112298034 0.002939032 0.06176808
0003c0 52 58 61 3d 7f 17 b9 3d 76 2f 94 3b 4f cc 9e bd
       0.05501587 0.09037685 0.0045222593 -0.077538125
0003d0 d1 22 c0 bd d4 65 8a 3d 5c 87 39 bc de b7 5e 3d
       -0.09381641 0.067577034 -0.011323776 0.05437457
0003e0 9c 03 ef bd b0 3a 16 3e 8c 6b bd bc 93 bd 83 3c
       -0.1167061 0.14670825 -0.023122571 0.016081607
0003f0 65 35 25 3d d7 3f 93 3d e2 db f6 bd b2 5b e1 bd
       0.040334124 0.07189911 -0.12053658 -0.110038176

conv1.bias f4 [32]
000000 de e7 cd 3d b5 2d be 3d fb f6 b4 bc ff 9a 19 3e
       0.10053991 0.09286062 -0.022090426 0.15000533
000010 1b e9 8d 3c bb 85 1b be cc 4d 31 3e 20 90 fa 3d
       0.017323067 -0.15187733 0.17314833 0.12234521
000020 d0 7a b1 3d 9b b8 97 3d 5e 85 08 be 2b 4b d0 bd
       0.08666003 0.074082576 -0.13332126 -0.10170587
000030 73 c6 1b 3e 54 89 ea 3c bd bf d0 3d 8b 80 e4 bd
       0.15212421 0.028629936 0.10192821 -0.1115733
000040 3d 4d cd bd e0 c8 19 3e 1b 05 f9 3d a8 83 45 be
       -0.10024498 0.15018034 0.12159177 -0.19288504
000050 6e 89 16 be 86 46 56 3d 19 03 8b bd 08 c1 3d be
       -0.14700863 0.05231335 -0.067877 -0.18530667
000060 c6 a2 c2 bc 53 66 65 3d f2 ad d6 bd 8a be 10 be
       -0.023759257 0.056005787 -0.10482396 -0.14135185
000070 00 06 84 3c f0 a7 2d bd 2d 45 29 be dc 5e 89 ba
       0.016116142 -0.042396486 -0.16530295 -0.0010480541

conv2.weight f4 [64, 32, 3, 3]
000000 c7 93 6e 3d 4f 67 13 bb e4 6e ab bd ac 94 96 3d
       0.0582464 -0.0022491997 -0.0837076 0.07352576
000010 f4 dc 38 bd 6e 1d 95 bd 5a 89 7f 3c a7 19 2e bb
       -0.045132592 -0.07281004 0.015596712 -0.0026565583
000020 87 05 6a bc a2 50 a6 3c 8a 53 df bd b3 5f 9a 3d
       -0.014283544 0.02030212 -0.10904606 0.075377844
000030 dd 60 20 bd c9 03 3a bd 10 43 bf 3d 9e 23 3c 3d
       -0.039154876 -0.045413766 0.09338963 0.045932405
000040 69 1c d8 3d de a3 64 3c 33 8e 91 bd 2b 41 74 bd
       0.10552294 0.013955085 -0.071072005 -0.05963246
000050 a0 d1 f8 bc 58 7b 1a be 6c 38 8f bd 3e 60 bf 3b
       -0.030373394 -0.15086114 -0.069931835 0.0058403304
000060 49 41 43 bd fa ce 40 bd 72 ae 0e 3e aa 0c 41 be
       -0.047669683 -0.04707239 0.13933733 -0.18852487
000070 ce 65 07 3d b0 ca 85 bc 44 1a 55 bd 97 7f f3 3b
       0.033056073 -0.016332 -0.052027002 0.0074309814
000080 85 37 40 bd 33 34 97 3d 25 0e 90 3d 74 ee 9a bd
       -0.046927948 0.07383003 0.07033948 -0.075650126
000090 bf 59 92 3d e0 25 d9 bd 78 88 a8 3d 1f 91 13 3e
       0.07146024 -0.10602927 0.08229154 0.14410828
0000a0 f8 57 8d 3c 8b 87 34 bd 1d 46 b8 3b 15 dd 36 bb
       0.01725386 -0.044074576 0.0056235925 -0.0027902771
0000b0 da b3 1a 3c 65 39 12 3c 78 3f 54 3d 3a f0 3c 3c
       0.009442294 0.008924817 0.05181834 0.011531884
0000c0 d9 ee 26 3e 91 27 1e 3e c4 bd 2b bc 3f 7f b6 3d
       0.1630205 0.15444781 -0.010482255 0.08910989
0000d0 4a 91 43 3c 96 8d 3b 3b 27 ed 23 3d 9c 99 9a bc
       0.011936495 0.0028618327 0.040021088 -0.018872075
0000e0 45 b2 b9 bd d5 6d c0 bc b0 53 7d 3d d2 c1 e1 3c
       -0.09067205 -0.023489872 0.06184739 0.027558241
0000f0 ce 90 c5 3d 53 76 fd 3d 76 8e bf 3d 44 b4 d9 bb
       0.0964676 0.12376084 0.09353344 -0.006643804
000100 a9 d0 92 bb 10 b4 9e 3d cd 0c c2 3c 01 ae 70 bd
       -0.0044804406 0.07749188 0.023687745 -0.058759693
000110 5c 0d b7 3c 92 80 2f bd 24 ef 09 3c 86 f1 91 3c
       0.022345237 -0.042847224 0.008418832 0.017815363
000120 84 34 f9 bd 2d c4 30 3d 96 b7 35 3d 92 2d aa bd
       -0.1216822 0.043155838 0.044364534 -0.08309473
000130 37 43 ed bd b2 91 f9 3c af dd 52 3d 89 72 e5 3c
       -0.11585086 0.03046498 0.051480945 0.028008716
000140 71 14 c6 3c 18 e6 92 3d d0 1a 3e bd 49 76 05 3c
       0.02417967 0.07172793 -0.04641229 0.008145877
000150 71 4b c3 bd 15 61 50 bc 6a 3c 3f bd 00 ff 40 3b
       -0.09535874 -0.012718459 -0.046688475 0.0029448867
000160 9f a1 70 3c 72 cf 53 bd 25 ad a1 3d 01 a3 8d 3d
       0.014686971 -0.051711507 0.07894353 0.06915856
000170 b6 36 f3 3c c8 5a 96 3b d1 34 3f 3e b2 ef 3c 3e
       0.029689174 0.0045884587 0.18672492 0.18450812
000180 5c 72 4f be b5 82 10 be 31 41 21 be cc 38 0f 3d
       -0.20258468 -0.14112361 -0.15747525 0.034966275
000190 82 31 45 be ed f6 07 be 96 9d 96 bb 77 14 11 3e
       -0.19257167 -0.13277788 -0.0045964224 0.14167963
0001a0 4a ec a8 bd 65 c1 3f be 1d f2 02 3d 13 cf 1c 3e
       -0.082481936 -0.18726118 0.03196918 0.15313368
0001b0 5e 05 32 bd b5 1a ed bd ec 1a 4e bd e1 4e b6 3d
       -0.04346215 -0.115773596 -0.050318643 0.08901764
0001c0 2b b4 2c 3d 21 e5 26 bc f7 e7 8e bc 34 12 7f 3d
       0.04216401 -0.0101864645 -0.017444594 0.06227322
0001d0 ca bd 99 bc d9 37 d3 3b 3c 79 18 bd 00 38 a7 bd
       -0.018767256 0.0064458665 -0.037224993 -0.08164978
0001e0 e0 dc 8e 3d 55 20 cd bc 49 85 8b 3d 2f 91 b6 3c
       0.06975722 -0.025039831 0.068125315 0.022286026
0001f0 de 33 82 bd 3d 67 6a 3d d5 f1 ed 3b e5 c2 35 bd
       -0.06357549 0.057227362 0.0072614946 -0.04437532
000200 69 42 64 3d 24 02 0f be 7a 92 79 bd e7 21 92 3d
       0.055727396 -0.1396566 -0.060930707 0.071353726
000210 0a 5b bb bc ff b7 cb bc b6 d5 f3 3b 57 51 98 3c
       -0.02287056 -0.02486801 0.007441248 0.018593473
000220 59 c5 ec bc 65 e6 9b bc 1d 26 fb 3c 70 96 5c 3c
       -0.028902696 -0.01903076 0.030657822 0.0134636015
000230 41 49 0a 3c e4 d3 d2 3d 88 1a 6c 3c 84 97 2c bd
       0.008440317 0.10294321 0.014410622 -0.042136684
000240 37 e5 91 3d c0 04 0c 3d e5 6e 85 3d 40 dc ba 3c
       0.071237974 0.034184217 0.06515292 0.022810102
000250 13 3f 2b 3d fe 44 49 3d 62 ce 98 bd bd cf 52 be
       0.0418082 0.04913806 -0.074612394 -0.20587058
000260 94 2c c9 bd f7 8c 5d bd c7 7b 99 bc 9b a9 dc bd
       -0.09822956 -0.054089513 -0.01873578 -0.10774537
000270 1e 2f 9d 3d 10 48 8f bd a2 45 a3 bc 6f 1e ce 3b
       0.076750025 -0.06996167 -0.019930664 0.006290249
000280 83 92 28 bd c2 f9 43 bd 68 06 38 3d 70 b7 2b 3d
       -0.04115535 -0.04784561 0.044927984 0.041922987
000290 34 8a 21 3e 31 c7 3f 3d 7d 13 6a 3d f1 de a7 3c
       0.15775377 0.046820823 0.05714749 0.020492049
0002a0 a7 70 04 3d 5f 2d f1 3d 19 95 ec 3d 49 c1 92 3d
       0.032333996 0.11776232 0.115518756 0.071657725
0002b0 9e 38 c2 3c 83 ab f7 bd 1d 81 f1 3c dd db fa 3d
       0.023708638 -0.1209326 0.029480511 0.12248967
0002c0 7f fe 02 3e 4b e2 c4 bd cd da ec 3a 78 8a aa bd
       0.12792395 -0.096134745 0.0018070579 -0.08327192
0002d0 30 d6 00 3d aa 92 a0 bd 5b 70 96 bd 57 1b 92 3d
       0.031454265 -0.07840474 -0.07345649 0.07134121
0002e0 f2 1c 0a 3d 75 88 2c 3d 15 08 24 be 13 b7 46 bd
       0.03371901 0.042122323 -0.16018708 -0.048514437
0002f0 98 57 bc 3d fe 6e 8a bd 84 eb 8b bd 21 c0 e0 bc
       0.09196395 -0.06759451 -0.068320304 -0.027435364
000300 99 03 7e bd 62 a1 a1 bc ea d9 d8 3b e4 74 80 3d
       -0.06201515 -0.019730274 0.0066177743 0.06272295
000310 e3 f3 83 bc 97 93 0c 3c 54 1c 26 3b d8 f6 82 bd
       -0.016107505 0.00858011 0.0025346475 -0.06394738
000320 23 00 44 bd 95 33 46 3c 98 ff b1 3c db 20 02 3e
       -0.047851693 0.012097259 0.021728322 0.12707846
000330 e3 73 02 bc 39 2b 3b 3d 98 13 24 be da de 17 bb
       -0.0079622 0.045695517 -0.160231 -0.0023173601
000340 18 04 a2 bd 6c 91 1c 3e 58 6a 90 3d 1f 0f 82 bd
       -0.07910937 0.15289849 0.070515335 -0.0635054
000350 aa b4 ee 3d 08 6b ad bd 9c 33 73 3c f0 b4 91 3d
       0.11655553 -0.0846768 0.014843848 0.07114589
000360 26 92 ae 3d cf 2a c1 3d c2 f8 c3 bc 57 d5 57 3e
       0.08523969 0.09431993 -0.023922328 0.21077476
000370 fe 40 b8 3d 14 b9 8e 3c 46 bc 16 3e 10 12 a9 3d
       0.08996771 0.017422237 0.14720258 0.08255398
000380 de 50 1e bc ed fd f6 3d b8 90 86 3c 59 e7 d3 3d
       -0.009662835 0.12060151 0.01642643 0.103468604
000390 a0 af cf bd c7 e8 b3 bd 7a 7c ee 3a b5 97 c7 3d
       -0.1014092 -0.08784633 0.0018195056 0.09745733
0003a0 0c 1c 67 bd ff 86 19 3d 5d a7 04 3e e4 ec 23 3e
       -0.056423232 0.037482258 0.12954469 0.16008335
0003b0 a5 9f 66 3e 03 19 35 bd fb af c6 bd 9e e9 ed bd
       0.22521837 -0.044213306 -0.09701534 -0.116168246
0003c0 03 ed 21 3d b0 b8 77 3d ef 88 45 bd 5e 1c ce bc
       0.039532673 0.060478866 -0.048226293 -0.02516001
0003d0 25 e8 fe 3c d8 69 3c 3d fe 62 0d be 13 c1 ba bd
       0.031116555 0.045999378 -0.13807294 -0.09118857
0003e0 5e 79 aa ba 18 34 14 bd a7 e8 14 bc 2c 4f 1e 3e
       -0.0013006141 -0.036182493 -0.009088672 0.15459889
0003f0 55 3f 03 3e 9d 12 d2 3d 72 8e 12 3d 2c 37 ad bc
       0.12817128 0.102574565 0.035780378 -0.021144472

conv2.bias f4 [64]
000000 06 97 2b 3d 2a d7 12 bc ab 27 61 3d 43 71 54 3d
       0.041892074 -0.008962432 0.05496947 0.051865827
000010 86 ad cd bc 24 64 20 bc fa af 89 3c 9d df 6e bd
       -0.025107156 -0.0097895 0.016807545 -0.058318723
000020 65 ab 3b bd d4 76 0e bd 30 32 83 3b c5 5b cb 3b
       -0.04581775 -0.034781292 0.0040037856 0.006206008
000030 02 f5 84 3d ad 4f 59 bd 76 5f 45 3c 22 2a 2f 3c
       0.06492044 -0.0530545 0.012046685 0.010691198
000040 75 88 12 bc ee 01 d5 3c 10 bd ea bc e0 24 ef bc
       -0.008943667 0.026001897 -0.028654605 -0.029192388
000050 24 42 5f bd 77 ff b8 bd ef 4b 0e bd 2f ca 09 3d
       -0.054506436 -0.09033101 -0.034740385 0.033640083
000060 6b 0e cd 3b c9 7f 72 bd 94 df fe 3c b4 2a 0b bd
       0.0062578223 -0.059203897 0.03111247 -0.03397627
000070 d0 cd f1 bb 9c 9e 0a bd d8 a2 11 bc 4b a1 99 bc
       -0.007379271 -0.033842668 -0.008888923 -0.018753668
000080 b0 32 3f 3d 12 f7 05 3d 22 c6 1f 3d cb 43 95 3d
       0.0466792 0.032706328 0.039007314 0.07288321
000090 c6 33 8f bc fa 92 80 bd 6f f9 2d 3d 8d 30 77 bd
       -0.017480742 -0.062780336 0.042474207 -0.060349036
0000a0 c8 9b af 3d 71 03 c2 3c da d1 1c 3d 65 74 68 bd
       0.08574635 0.023683282 0.038286068 -0.056751627
0000b0 6f 36 ee bc 4e 65 17 bc f0 be 24 3d 32 46 36 3d
       -0.02907869 -0.0092404615 0.040221155 0.044500537
0000c0 cc aa a2 bc 56 ee 5f 3c d0 78 0e 3c 62 00 fa 3c
       -0.019856833 0.013667664 0.008695796 0.03051776
0000d0 d8 16 4b bd 48 6b 5b bd 45 f1 26 bd 5e 7d 33 bb
       -0.049582332 -0.05356911 -0.040757436 -0.0027387957
0000e0 c8 11 64 bd 94 22 9c 3c 1c e2 74 3c 8f 5e b8 bc
       -0.05568102 0.019059457 0.014946487 -0.022506027
0000f0 cd 3a 17 3d 38 14 2d 3d aa 4d ae 3c 3a 22 09 bc
       0.03692131 0.04225561 0.021277267 -0.008369977

conv3.weight f4 [128, 64, 3, 3]
000000 6f 9c b0 3c f8 38 40 be 8a b6 15 3d 43 9c 32 bd
       0.021558968 -0.18771732 0.036551036 -0.043606054
000010 76 95 c8 3d 02 4d cf 3d c2 3c a1 3c e0 c7 7d 3d
       0.097941324 0.1012211 0.019682292 0.061958194
000020 b4 fd 90 bd 09 78 5d bd d8 4e 0b be 54 10 a2 3d
       -0.0707964 -0.054069553 -0.13604295 0.079132706
000030 60 63 88 3b a2 5f b8 bd 32 36 db bc 6b 2f 40 3d
       0.004162237 -0.090026155 -0.02675924 0.04692022
000040 bd c8 25 3d 8c e7 e4 bd e6 89 0d be 0d 28 33 ba
       0.040474642 -0.111769766 -0.13822135 -0.0006834276
000050 23 3f a4 bd d2 f7 5b bd 71 50 d7 bd 92 0b f7 3b
       -0.08019855 -0.053703137 -0.1051339 0.007539221
000060 c3 71 d5 bd 80 1e 32 bd 54 9d 72 bd 9e db f5 bb
       -0.10422089 -0.04348612 -0.05923207 -0.007502987
000070 af fe e2 bd db fb ed bd 93 1c 44 bd a2 2f e3 bd
       -0.11083733 -0.11620303 -0.047878813 -0.110930696
000080 c2 e1 1d be 51 ab 6f 3d b0 b7 0e 3d 0a 88 fc 3c
       -0.15418151 0.05851299 0.034843147 0.030826587
000090 cf 54 44 bd 0e 99 96 bd 95 ca e3 3b bc 08 40 3d
       -0.047932442 -0.073534116 0.00695164 0.04688333
0000a0 6f 38 3c 3c 4f 22 45 bd bd 03 13 3e 9f 6d 95 3d
       0.011488064 -0.048128422 0.14356895 0.07296299
0000b0 8a 49 00 3c f0 bb df 3d d1 e5 50 3d 72 bc 21 be
       0.007830033 0.10924518 0.05100042 -0.15794542
0000c0 d7 b4 01 3d c2 c5 cd 3c 2d 7f ec bd ad 1b 17 3e
       0.031666603 0.025118712 -0.11547694 0.14756651
0000d0 5f c1 8f bd ff 27 ee bd 40 67 f5 ba f3 5b c2 bd
       -0.070193045 -0.116287224 -0.0018722787 -0.09490194
0000e0 b2 d3 13 3d 5b 17 4f bd 8b 47 0f 3e e3 a6 27 3d
       0.03609056 -0.050559383 0.13992135 0.04093064
0000f0 99 f0 b3 3c 0b 9f 49 3c 3d 7c 03 be 47 d4 6c bc
       0.021965312 0.012305985 -0.12840362 -0.014454908
000100 fb 5a d9 3b 77 76 d0 bc b2 37 8a 3d f4 a4 aa 3d
       0.00663316 -0.025447113 0.06748904 0.083322436
000110 37 42 c3 3d 9a df b1 3d f8 68 ae 3d 60 3a 04 3d
       0.09534114 0.08685227 0.08516115 0.032282233
000120 70 80 e7 3d e2 be eb bc b2 2c 8a 3d 6b c2 69 3d
       0.113037944 -0.028777543 0.06746806 0.057070177
000130 0b 30 fd 3d 2d d8 3a 3e 6f 7b a7 3d 75 df 09 3e
       0.12362679 0.18246527 0.0817784 0.13464148
000140 d0 16 9f 3d 3f 79 1a be 56 bb 1d 3c 19 af 13 bd
       0.07768023 -0.15085314 0.009627184 -0.036055658
000150 b3 ca 2c 3d 88 79 22 3d e1 1a 4c 3d 47 a3 b6 3d
       0.042185497 0.039666682 0.04983032 0.089178614
000160 75 90 7f bc 04 92 5f 3c b0 6b 6c 3d ff 76 4b ba
       -0.015598406 0.013645653 0.057719886 -0.0007761567
000170 df 19 15 bd 0e 45 18 3e 58 b1 54 3d 70 2f 86 3d
       -0.036401626 0.14870092 0.05192694 0.06552017
000180 cb 0c 18 3d e7 31 82 3b 03 a2 5d 3c 44 af e4 bb
       0.037121575 0.003973234 0.013527396 -0.006978901
000190 df 9f e9 bd cc e9 78 bd 14 7e 11 bd 29 b2 90 3d
       -0.11407446 -0.06076984 -0.035520628 0.07065231
0001a0 2f 34 0c 3d 2c bd 8e 3c c7 cf a7 bc 0a 43 bb bd
       0.034229454 0.017424189 -0.020484818 -0.09143646
0001b0 dc 8f 92 3d 09 6e e9 3d 16 bf 8d 3d d6 29 1c 3c
       0.07156345 0.11397941 0.069212124 0.009531459
0001c0 fa ad 40 3d c8 90 c4 3b 93 23 d9 bc 4b 2c c6 bc
       0.047040917 0.0059987046 -0.02650622 -0.024191042
0001d0 6b 50 72 bc 6b 62 0a 3b 72 5a ae 3d a9 cc e1 bd
       -0.014789681 0.002111579 0.08513345 -0.11025364
0001e0 f6 a6 fc 3d cf 43 dc bc 22 fb 12 3e d6 ce 32 be
       0.12336533 -0.026887802 0.14353612 -0.17461714
0001f0 ef 57 9f 3b a2 68 fc 3c 14 74 b4 bd 74 c0 26 be
       0.0048627774 0.030811612 -0.08811203 -0.16284353
000200 75 d3 e6 bc c7 e9 89 bd ca a5 44 3d 07 ec b0 bd
       -0.028177002 -0.067340426 0.04800967 -0.08638769
000210 35 88 4c 3d 46 5c 18 bd 4e d7 56 bd c7 53 46 bd
       0.049934585 -0.037197374 -0.052451424 -0.04841974
000220 63 1a 02 be 9c 8c d4 bd 73 e6 ea bc d7 b3 ec bd
       -0.12705378 -0.103783816 -0.02867434 -0.11557739
000230 52 45 dd bd 47 08 9c 3c bf cc 0d 3d c1 9a da bd
       -0.108042374 0.019046916 0.03461909 -0.10674048
000240 bf 55 39 3d d3 01 fb bd 08 d0 be 3d 75 5d 99 bd
       0.04524779 -0.12256207 0.093170226 -0.07488529
000250 5b 40 95 3d f3 d3 90 bc ee 1f 5e 3c ff be 44 3d
       0.072876655 -0.01767919 0.013557417 0.04803371
000260 66 bc 0d 3d b5 34 26 be 3d 77 44 bd aa e5 af 3d
       0.0346035 -0.16231044 -0.047965277 0.08588727
000270 1d 17 4d bc f2 2f a1 3d 6d 81 bb 3d ae d8 eb 3c
       -0.012517718 0.07870473 0.091555454 0.028789844
000280 3e a8 9c 3d da 25 90 bd bd cb f8 bd 44 00 35 be
       0.07649277 -0.070384696 -0.12148235 -0.17675883
000290 92 11 98 bd bf f9 ee bc 9a 1e 11 3a e1 7d 97 3d
       -0.07425226 -0.029171823 0.0005535871 0.07397056
0002a0 99 85 52 3d 52 fa ef bc a8 a7 7e bc a4 4b 54 bd
       0.05139694 -0.029294167 -0.015542902 -0.05182995
0002b0 44 7f 3f 3d 50 78 33 3c 83 32 2c bc c3 f8 0d 3d
       0.04675223 0.010953978 -0.01051009 0.034661066
0002c0 5a ae d0 bb 41 e0 03 3d 27 fd e2 3d 80 c9 b0 3d
       -0.0063684406 0.032196287 0.11083441 0.08632183
0002d0 68 db 8f 3d 88 30 fc bd e4 c6 a8 bc 22 28 4b 3c
       0.0702427 -0.12313944 -0.020602651 0.012399705
0002e0 41 45 e2 bc 37 8f 92 3d 66 cd 51 be 10 c5 23 3d
       -0.027620913 0.07156222 -0.2048851 0.039982855
0002f0 07 63 a5 3c 06 77 25 3d 7a 83 70 bd 9b 20 9c 3d
       0.020188821 0.040396713 -0.058719136 0.076234065
000300 05 76 c4 3d 81 2e b6 3d 07 60 38 3d c6 e1 04 3e
       0.09592823 0.08895589 0.045013454 0.1297675
000310 71 64 f1 3d ef f1 66 3c e8 a4 8e 3d c7 3f 97 bc
       0.11786736 0.014095767 0.06965047 -0.018463029
000320 c3 4f d6 3d 10 33 38 3c d9 e3 41 3e 21 69 5b 3e
       0.10464432 0.011242643 0.18934573 0.21426822
000330 c4 a8 04 3e 83 7b 0c 3e d9 ce b2 3c b4 b7 f2 3c
       0.12955004 0.13718991 0.021827148 0.029628612
000340 b3 6b e6 bd 9b 8f 1c 3d a8 db f0 bb b6 67 0c bd
       -0.11251011 0.03822289 -0.007350404 -0.034278594
000350 bf d7 b7 bc f6 57 88 3d a9 c6 99 bd 47 33 d9 3c
       -0.022441743 0.06657402 -0.075085945 0.026513709
000360 20 45 a2 bd 8d c3 80 bd d5 1a b5 bd 45 a8 7b 3c
       -0.07923341 -0.06287298 -0.088430084 0.015359943
000370 1c 18 28 bc 16 a3 c3 bd 8d c5 b7 3d 16 3d ff 3d
       -0.010259654 -0.095525905 0.08973227 0.12462823
000380 76 ed fe b9 88 c4 9e bd 60 6c d5 3c b6 22 c2 bc
       -0.00048623577 -0.07752329 0.026052654 -0.023698192
000390 d9 7d 90 3c e3 29 26 bc 7f 76 e9 3d 62 a6 ae 3d
       0.017638134 -0.0101418225 0.113995545 0.08527829
0003a0 a7 b5 86 3d dc f4 be 3c 6f 41 b6 3d 97 8c 55 bd
       0.06577616 0.023310117 0.08899199 -0.05213603
0003b0 26 24 60 3e 64 a2 6c bc 74 28 88 bc 58 cb 53 bc
       0.2188879 -0.014443014 -0.016620852 -0.012926899
0003c0 b0 34 01 bd a2 b4 b8 3c 78 ee 83 bd 2e 89 f1 3c
       -0.031544387 0.02254707 -0.06441969 0.029484358
0003d0 3c 26 1e 3e c7 33 72 3b 28 dd 3b bc 76 89 61 bd
       0.15444273 0.0036957131 -0.011466302 -0.055062734
0003e0 7c b4 0a be cc 0a ac 3d 00 71 05 bd 4f 03 90 bd
       -0.13545412 0.08400497 -0.03257847 -0.07031881
0003f0 df dc d8 bd 5d cd 9d 3e c6 f9 9f 3d 71 e9 6d 3e
       -0.10589003 0.30820742 0.078113124 0.23233582

conv3.bias f4 [128]
000000 6f 58 68 bd 1f a5 50 3d 7d 52 4f 3d 8b ba 8c 3c
       -0.05672496 0.05093872 0.050615776 0.017178794
000010 4b 8c 0b bb ce 15 00 3d 18 6e b5 3c d0 8e 73 3d
       -0.0021293338 0.031270795 0.022147223 0.05946237
000020 0c 85 21 3d 76 17 2b bc 9b 4d 31 bb 27 2f a8 3c
       0.039433524 -0.010442605 -0.0027054313 0.020530296
000030 5e 50 4b 3b ce 6b e6 3c d0 2f 3a 3d f0 e5 07 3c
       0.0031023244 0.028127577 0.045455754 0.0082945675
000040 c3 12 10 3c 5a 87 de bc cc b2 64 bc 8e 5b 9a 3c
       0.008793536 -0.02716415 -0.013958644 0.018842485
000050 1c 8b 0b bd b1 34 a9 3d 20 ec c7 3d a5 03 8a 3c
       -0.034068212 0.08262003 0.09761834 0.016847441
000060 8a 2f 70 3a 30 2b 03 3c 8f 87 df bc 57 72 56 b8
       0.00091623573 0.008005902 -0.027286319 -5.1128063e-05
000070 7e e8 cf bb 64 40 fe 3c 0a 56 d7 3c 54 fa 19 bd
       -0.006344854 0.031036563 0.026286144 -0.037592247
000080 96 c8 52 bd bf 23 91 3d bb 36 2b bb 25 aa 02 3d
       -0.051460825 0.07086896 -0.0026125151 0.031900544
000090 f6 da 93 3d e1 36 07 bd 5f 48 09 bd 7c 51 d0 bc
       0.07219498 -0.03301132 -0.033516284 -0.02542948
0000a0 3e a1 2a bd d4 34 34 bc 23 2d 7a bc a1 ae 37 bc
       -0.04165768 -0.010998923 -0.0152695505 -0.011211068
0000b0 87 79 2a bc 34 77 96 bd 8c a0 9f 3c a5 7a fb 3c
       -0.010404951 -0.07346955 0.019485734 0.03069813
0000c0 8c 36 85 3d bf 1d 2d 3d b4 a4 69 3b a4 bb 5b bd
       0.065045446 0.042264696 0.003565115 -0.053645745
0000d0 9c 92 22 ba 00 4c c7 3c ad 51 15 3d 13 d0 ab b9
       -0.0006201656 0.024328232 0.036454845 -0.0003277069
0000e0 16 7c 29 3d 07 e6 f5 3c 54 3e f5 bb 87 69 83 bc
       0.041378103 0.030016912 -0.0074842367 -0.01604153
0000f0 e3 db 60 3d cd 39 36 bc eb b5 f2 3c c3 5b fc bc
       0.0548972 -0.011122179 0.02962776 -0.030805474
000100 55 ed 86 3c 24 06 18 bd c5 17 49 bd 91 f9 52 3d
       0.01647059 -0.03711523 -0.049094934 0.051507536
000110 dd ef db 3b 26 10 1f bc c9 56 8a 3d cd 4d 2e 3d
       0.0067119435 -0.00970844 0.06754834 0.042554665
000120 57 4a 7c 3d dc 8e 34 3d cd cf a1 bc 32 3f 36 3c
       0.061594333 0.044081554 -0.019752407 0.011123465
000130 38 35 9d 3d 7d 65 a5 3d a1 8c 38 3d c0 32 87 bc
       0.07676166 0.08075998 0.04505599 -0.016503692
000140 d4 d8 94 bc 12 68 27 bd b8 ea 5c bc 68 fa 78 3c
       -0.018169798 -0.040870734 -0.013483696 0.01519642
000150 48 99 cc 3c bc ea 6b b9 f0 03 90 3d 9e 7b 2c bd
       0.024975434 -0.00022498792 0.07032001 -0.042110078
000160 3a 0c 86 bb ab cf 31 bd dd 07 1b 3c f0 53 47 bd
       -0.004090813 -0.04341094 0.009462324 -0.048664033
000170 ea b4 20 3d 86 7f 32 3c 69 ee b5 3d 32 50 71 3c
       0.039235033 0.010894662 0.08883364 0.014728593
000180 fc bf cc bc ea 4d ff bc 31 4b d7 3a 52 a7 09 bd
       -0.024993889 -0.031165082 0.0016425607 -0.033606835
000190 c7 95 a1 3d aa ae 55 bb 4e d4 71 3d 37 21 5a bc
       0.07889896 -0.0032605329 0.05904036 -0.013313583
0001a0 b1 b2 31 3d 31 e3 6d 3d a0 d0 48 3b 70 33 fb bc
       0.043383304 0.058077995 0.0030641928 -0.030664176
0001b0 63 88 b3 3d 2c 95 32 3c 3b 87 da 3b 7b aa 3c bc
       0.08766248 0.010899823 0.0066689528 -0.011515255
0001c0 2e ac 6e 3c 4e 58 a5 3b 75 21 f1 3c 9b 22 09 3d
       0.014567418 0.005045927 0.029434899 0.033480268
0001d0 f6 96 6e 3d 03 81 20 bd bd 13 23 ba 0f 9c 8a 3c
       0.058249436 -0.039185535 -0.0006220898 0.016920118
0001e0 2f fd ab 3c bc 7f c2 bb d8 00 30 3c c1 cd 6d 3d
       0.02099475 -0.0059356373 0.010742389 0.05805755
0001f0 41 aa 8e bc 2a 50 9c 3d a2 3a 94 3c 24 fa 5d 3d
       -0.017415168 0.076324776 0.018094365 0.05419363

act_conv1.weight f4 [4, 128, 1, 1]
000000 af 9b 4a bd 95 c5 80 3c 3e d2 a8 bc 47 d9 cc 3d
       -0.049464878 0.015719214 -0.020608064 0.1000238
000010 23 33 d8 bb eb 36 a1 3d 0c 47 c5 3d 8b db eb bd
       -0.006597893 0.07871803 0.09632692 -0.11516484
000020 52 41 0c 3e 8d c8 57 3e d2 a8 90 3d 97 d0 d6 3d
       0.13696793 0.21072598 0.0706345 0.10489004
000030 d9 4e ee 3d 39 a7 fe bc 33 eb 43 3c 1d 03 fc bd
       0.11636133 -0.031085597 0.011957931 -0.12305281
000040 10 f6 d4 bd 9e fa 0c 3c e7 4d 86 bd 45 3d b6 3d
       -0.10398495 0.008604674 -0.065578274 0.08898405
000050 16 fa 01 bd 1e 92 cf bc 68 a5 e2 3d 63 c4 a5 3b
       -0.03173264 -0.025338229 0.11066705 0.0050588115
000060 3a ac 2e 3e 21 c7 bd bc c4 d5 e7 3d 50 78 54 98
       0.17057887 -0.023166241 0.113200694 -2.74611e-24
000070 5d e7 b9 bd 6c e2 fe 3c 2a 62 3f be f4 db 06 be
       -0.09077332 0.031113826 -0.1868979 -0.13169843
000080 e3 82 6d 3d b9 a9 d4 3d 39 93 88 3d de 01 06 bd
       0.05798615 0.103839345 0.066687055 -0.032716624
000090 31 e5 99 bd 3e de 1c bc d6 1d e5 bc 10 f1 92 3c
       -0.07514418 -0.009574471 -0.027968328 0.017937213
0000a0 50 2d d2 3d 74 5e 15 bd aa 81 14 bc d9 a7 62 3d
       0.10262549 -0.03646703 -0.009064117 0.055335853
0000b0 e5 24 75 3d 3a 13 ed bd 26 1f 22 3e 69 31 bc 3d
       0.05984964 -0.11575933 0.15832195 0.09189112
0000c0 36 90 11 3e 30 14 0f 3c 1e 51 be bd 46 49 e0 bd
       0.14215168 0.00873284 -0.092928156 -0.10951476
0000d0 0c 8a 07 98 73 63 87 bc 3f 3d d8 3d 12 ac 0b 17
       -1.7518037e-24 -0.016526913 0.10558557 4.5130506e-25
0000e0 d5 08 dc bd fe 84 fc bd 2f c8 88 19 3e f8 c4 3d
       -0.10743872 -0.12330054 1.4142924e-23 0.09617661
0000f0 85 86 98 bd 6f e3 37 3d 81 3b b8 3d 75 d5 a4 3d
       -0.074475326 0.044894632 0.089957245 0.08048526
000100 d8 5a 96 bd 79 c2 10 3e 09 56 54 3e 99 d9 86 bd
       -0.07341546 0.14136685 0.20735945 -0.06584472
000110 0c a3 8c bd b9 b8 36 b6 5d e1 ac 3c b2 f9 ec bd
       -0.06867036 -2.7227636e-06 0.021103555 -0.11571063
000120 3a 0d a3 3d 63 7f f6 3d 03 3a d4 3d 6a f5 7e 3d
       0.07961507 0.12036016 0.10362627 0.062245764
000130 05 f7 1d 3e 0e 85 88 3c e0 5a a2 bd 76 9a 00 3e
       0.15426262 0.016665008 -0.07927489 0.12558922
000140 bb 05 2b 3b 7a 08 38 3d 96 3d f0 3d 68 e6 e0 3d
       0.0026095945 0.04492996 0.117304966 0.109814465
000150 56 a0 d0 bd c4 69 0d 97 16 ad 6d bd 09 8d bb bd
       -0.10186832 -4.569305e-25 -0.058026396 -0.0915776
000160 85 e2 81 97 85 35 b8 bc ec eb 03 3e cd cf 31 ba
       -8.393611e-25 -0.022486458 0.12882966 -0.0006782979
000170 56 94 bd bd 92 4b 8e 3b 42 4c c5 3b de 5a 99 3d
       -0.092568085 0.004342505 0.0060210535 0.07488035
000180 40 77 62 3e ca e5 d6 bd 9a 23 45 bc e0 85 48 3d
       0.22115803 -0.104930475 -0.012032414 0.0489558
000190 03 c3 91 bd 7e 70 b0 18 e8 1c fe bd e1 16 b0 bd
       -0.07117274 4.560852e-24 -0.12407857 -0.08598114
0001a0 d5 64 c4 3d 48 2c a1 3d c0 e7 46 3e 27 01 d3 3c
       0.09589545 0.07869774 0.19424343 0.025757385
0001b0 d3 8f 7a bc ab 0f b3 3c 20 6b 13 bd b3 03 2a 3d
       -0.015293079 0.021858057 -0.035990834 0.041507434
0001c0 70 18 92 bd 49 7f e2 3d 1a ea 30 3d bb ad a8 3d
       -0.07133567 0.11059434 0.043192007 0.082362615
0001d0 d9 7e f8 bc 10 ea c9 bb cb ff 71 23 42 5c f8 bd
       -0.030333923 -0.0061619356 1.31188024e-17 -0.12126972
0001e0 6a 20 1f be 75 20 00 17 0b 31 99 3d 8e bf 53 3d
       -0.15539709 4.1399997e-25 0.07480057 0.051696353
0001f0 87 46 7e 3d b8 da 09 bd ea cb 4e bd f6 71 58 3d
       0.06207898 -0.033655852 -0.050487436 0.052843057
000200 a4 19 f6 bd 99 d6 b6 3d cf 1c e3 3d 1d 92 7a bd
       -0.12016609 0.0892765 0.11089479 -0.0611745
000210 59 38 ac 3d 5d bc 8f 3d 29 6a 94 bd c2 64 97 bc
       0.08409185 0.07018349 -0.07246811 -0.018480662
000220 a5 ad 3b 3d eb d9 b5 bd 6f 73 03 be c8 c1 b3 3a
       0.045819897 -0.08879455 -0.12837003 0.0013714368
000230 1f 8e 97 bd 3b 34 de 3d fd f9 b1 bc c3 a7 b4 bc
       -0.07400154 0.10849806 -0.021725649 -0.022052651
000240 75 b8 2f bd 9e c0 c2 bd 03 6d 33 bd 1b ce 35 3d
       -0.04290052 -0.09509395 -0.043805134 0.04438601
000250 a1 de a7 bd b6 e7 b2 3d 31 21 8c 3d 27 7b fc 3d
       -0.0819676 0.087356016 0.06842268 0.12328177
000260 82 fd b5 bd 94 02 97 bd 67 f4 4d be 62 61 03 97
       -0.088862434 -0.073735386 -0.20112763 -4.2451297e-25
000270 54 d1 74 3d de 07 7a bd 14 69 b0 3d 97 ef 79 3d
       0.059769943 -0.06104266 0.08613792 0.061019506
000280 e2 d0 93 3c 87 07 ab 3d c6 3c 63 bd 72 f8 1f bb
       0.018043939 0.08351045 -0.05547788 -0.002440956
000290 74 ca 3c 3d 8f 28 33 bc e2 42 e4 bd 21 0b 8f bc
       0.04609151 -0.010934963 -0.111455694 -0.017461361
0002a0 c8 54 fe bd ce 8c b1 3d fa 98 95 bb 5a f8 22 be
       -0.124185145 0.086694345 -0.0045653554 -0.15915051
0002b0 ca 23 8a 3d 7c 4f 0a 3e fe 30 32 3d e4 44 cc 3d
       0.067451075 0.13506883 0.043503754 0.09974077
0002c0 42 38 0f bd aa 09 44 3d 3a 07 47 bd eb e0 bd bd
       -0.03496576 0.04786078 -0.048590876 -0.09271415
0002d0 0a cd 9d 16 e6 96 ff bc 89 79 13 3d 68 24 99 16
       2.5494116e-25 -0.031199884 0.036004577 2.4741459e-25
0002e0 20 d5 c1 3b 06 9d 93 bc f4 b0 73 19 42 61 c7 bd
       0.005915299 -0.01801921 1.2598541e-23 -0.09735347
0002f0 23 95 80 3c cb a8 67 bd 7c 1e ab 3d 1c ad 9c bd
       0.015696114 -0.056557458 0.08355424 -0.076502055
000300 90 9a a5 3c 57 34 04 3d 2f 26 01 3e e5 3d ec 3d
       0.020215303 0.032276478 0.12612222 0.11535243
000310 53 2b c5 bd 49 73 0c 36 b8 98 92 3d b8 75 fa 3d
       -0.09627404 2.092873e-06 0.07158035 0.12229484
000320 cf 16 27 bb f2 51 dc 3d 1d 51 22 3e 71 a0 8a bd
       -0.0025495773 0.10757817 0.15851255 -0.06768883
000330 00 5d 9d 3d 1b 2e a3 3e e3 8c 13 bd 55 77 00 3d
       0.07683754 0.31871113 -0.036023032 0.031363804
000340 a2 e4 53 3c 8c ee 53 3c 48 67 ec 3c d6 fb a1 3d
       0.012932928 0.012935292 0.028857842 0.07909362
000350 2f 2d d5 3d 1e b3 12 97 66 9e e0 3d 61 65 05 be
       0.10409009 -4.740122e-25 0.10967712 -0.13026954
000360 1c dc 26 96 9f b1 bb 3d a5 85 0d 3d 03 c2 3d bd
       -1.3478827e-25 0.09164738 0.03455128 -0.046327602
000370 b6 db e9 3d 6e 89 4f 3b 8b 3f 05 3e 61 24 9e 3d
       0.1141886 0.0031667608 0.13012521 0.077217825
000380 2e 9d 37 bd 78 60 a1 bd d7 a1 96 bd 32 12 ab bb
       -0.044827633 -0.07879728 -0.07355087 -0.005220675
000390 39 88 70 3d d2 24 a2 97 80 c0 eb 3d a1 73 e3 3c
       0.058723662 -1.0478299e-24 0.11511326 0.027765097
0003a0 d2 bf 6e 3d 13 ff 02 3e 4e d3 bf 3d 1d 64 15 3d
       0.058288403 0.12792616 0.09366475 0.03647243
0003b0 96 2e 32 3d 59 06 d5 3d 73 a0 9a bc f3 4e 02 3d
       0.04350146 0.10401601 -0.018875336 0.031813573
0003c0 cc d3 80 3d 20 46 bd bd 80 42 11 bc bb 73 98 bd
       0.06290397 -0.09241891 -0.0088659525 -0.07443949
0003d0 ae d3 e3 3d 2e fa 2d bc db fe 69 16 3d f1 82 bd
       0.11124359 -0.0106187295 1.8902008e-25 -0.06393669
0003e0 52 dc a8 3d 17 52 c2 2e 3e 01 c2 bd 70 f6 b7 bd
       0.08245148 8.836681e-11 -0.09472893 -0.08982551
0003f0 24 0e cf bd f3 7a 70 3c ff 14 01 3e 39 58 ba 3d
       -0.10110119 0.014677751 0.12605666 0.090988584

act_conv1.bias f4 [4]
000000 c5 73 a8 3d 79 07 92 3d 6b 74 d1 bd 05 25 b4 3d
       0.08225206 0.071303315 -0.10227283 0.087961234

act_fc1.weight f4 [64, 256]
000000 5c 79 d5 3d 8f a5 1f bd fd 78 0f bc 90 2f 2d bd
       0.10423538 -0.03897625 -0.008756873 -0.042281687
000010 a1 a4 37 bb f8 6f 06 bb d0 ea 33 bc 68 a9 5d bd
       -0.002802171 -0.0020513516 -0.010981277 -0.054116637
000020 54 8d ff 3c 27 6c b4 bd ab 8e ed bc 56 aa bf 3d
       0.03119532 -0.08809691 -0.028998693 0.09358661
000030 71 c3 9e 3c f5 e1 11 bd 1d e1 86 3d ad 78 7a bd
       0.019380303 -0.03561588 0.06585906 -0.06115024
000040 4c 12 10 be 35 29 97 bd 09 a5 9d bd e9 70 03 bd
       -0.1406948 -0.073809065 -0.076974936 -0.0320901
000050 1c b8 02 3d 2b 70 6d 3c 10 9c 12 bb 5c d4 c8 bd
       0.03191386 0.014492075 -0.0022370853 -0.09806129
000060 87 43 cc 3b 91 dd 91 3c 53 0f bc 3d ba c3 cb 3d
       0.006233636 0.017805846 0.0918261 0.09949441
000070 9f 61 0d 3d 79 28 e3 bc 79 9c e2 bb eb d4 8f bc
       0.034516927 -0.02772926 -0.0069156257 -0.017557582
000080 76 a6 6e 3d 4c c9 ee 3b 32 56 00 3c b2 70 22 bc
       0.05826422 0.00728718 0.007833051 -0.009914564
000090 6c f3 46 3d a4 44 12 bc 4d 36 27 3e ee 64 2f bd
       0.04857199 -0.008927498 0.16329308 -0.042820863
0000a0 94 01 d0 bd e6 35 28 bc 32 1e ac 3b df 22 45 bd
       -0.10156551 -0.010266757 0.005252623 -0.04812896
0000b0 bf 75 65 3d fe 1f 3e 3c 27 84 14 bd 28 73 5e bd
       0.056020495 0.011604307 -0.036258843 -0.05430904
0000c0 34 ca 1e 3c 4f 21 5f bc e5 58 f6 bc d9 9f 18 bc
       0.009691764 -0.013618781 -0.030071685 -0.009315454
0000d0 56 69 a4 3c a7 06 8f 3d ee bd 2e 3b 9c 7a f6 bd
       0.02006976 0.06983691 0.00266635 -0.12035105
0000e0 d1 e4 90 be b0 e0 00 bd 42 5f 8d bd 2b d2 d8 3b
       -0.28299573 -0.03146428 -0.069029346 0.006616851
0000f0 ac cc b0 bd d6 0a 14 bd 8f 10 c0 bd 27 c5 00 be
       -0.08632788 -0.036143146 -0.09378158 -0.12575208
000100 db 88 58 bd ae f8 cd bd e9 f1 28 bc 06 90 67 3d
       -0.05286489 -0.100571975 -0.010311582 0.056533836
000110 1e 01 e8 3c f9 56 96 bd cb 6e cd bc 0e 0b 4b 3c
       0.028320845 -0.073408075 -0.025077244 0.012392772
000120 04 94 d7 bd 93 8f 32 be 0e bc 88 bd 55 2e 42 bb
       -0.105262786 -0.17437582 -0.066764936 -0.0029629667
000130 4a ea c9 3c cb a2 09 3c 42 b8 1f bd 63 c9 ec bc
       0.02464785 0.008400629 -0.03899408 -0.028904622
000140 88 06 19 bd 03 e3 95 bd 11 a6 7b bd 5b 88 7e 3d
       -0.037359744 -0.0731869 -0.06143767 0.062141757
000150 ff 5c d1 3b c9 d1 0e bb 9d d3 af bc f9 19 94 bd
       0.00638926 -0.0021792522 -0.02146321 -0.072315164
000160 2b 04 a4 bc 31 5d 4f bd 78 e3 29 3d c1 42 d8 bb
       -0.020021519 -0.050625984 0.041476697 -0.0065997546
000170 0b 08 39 bc 65 be 15 3d 78 04 99 3b c0 f4 fa 3c
       -0.0112934215 0.036558527 0.004669722 0.030634284
000180 8e cf 35 bd 2a 35 8a bd fb e7 8e 3c 8d 78 a7 bc
       -0.044387393 -0.067484215 0.017444601 -0.020443225
000190 e7 f4 50 bb d5 19 4d 3d 5a 6f db bc 95 2e 57 3d
       -0.0031884254 0.050073463 -0.026786495 0.05253466
0001a0 51 ab 9e bc fe 63 a6 bc 58 ea 87 bd ce 06 35 bd
       -0.0193688 -0.020311352 -0.066364944 -0.044195943
0001b0 cc a9 03 3d e9 e8 a5 3d cb 4e d4 3c 6f ff 30 bc
       0.032144353 0.08101065 0.025916478 -0.010803088
0001c0 59 04 a8 bc e7 c8 7f bd 31 62 17 3d bb 0b 6b 3b
       -0.020509886 -0.062447455 0.036958877 0.0035865146
0001d0 82 75 de 3d 6e 03 7b 3c d9 d9 fe bd 85 d8 9d bc
       0.108622566 0.015320642 -0.12443895 -0.019268284
0001e0 ba 4f 4e 3d cc 90 19 be 0b c6 80 3b e6 3c 33 bd
       0.050369002 -0.14996642 0.0039298586 -0.04375925
0001f0 e0 3c 8c 3d d0 90 72 bd b8 1b 08 be a7 22 fb bd
       0.068475485 -0.059220135 -0.13291824 -0.12262469
000200 70 2b ef 3d 80 50 15 3d 7b 00 35 3c 6f fa a7 3d
       0.11678207 0.036453724 0.011047478 0.08202063
000210 a9 80 3e 3d 99 52 d2 3d 54 1f 84 bd ca 16 b6 bd
       0.04650942 0.102696605 -0.06451288 -0.088910654
000220 ab ca 2c 3b c9 5e 8f bc fe ec be 3d 21 29 ad bc
       0.0026365917 -0.017501252 0.093225464 -0.021137776
000230 7b f6 03 3d 4a 26 2b bc 89 48 b1 3c e8 c9 2b bd
       0.032217484 -0.010446141 0.021641033 -0.0419406
000240 6d 88 08 bb 5e 86 2e 3c ae 90 ae b9 e8 f0 10 3d
       -0.002083327 0.010652153 -0.0003329566 0.035385996
000250 6e f8 b2 3c 9b 5e bd bd d2 d3 a6 3c 7c f3 a3 3c
       0.021846976 -0.0924656 0.020364676 0.020013563
000260 8a 8c b5 3d 62 56 8b 3d a3 03 db 3c 24 ac 73 bd
       0.08864696 0.068035856 0.026735133 -0.059490338
000270 46 db 8a bd 42 be 71 bd 59 f3 80 3c eb 30 97 3a
       -0.06780104 -0.059019335 0.015741037 0.0011534964
000280 ed 55 92 bb 92 a3 56 3b 89 fb be bc bb a4 f1 bd
       -0.0044658096 0.0032751304 -0.0233133 -0.11798998
000290 26 ac db bd 91 db 68 3c 5e 6f 81 bc 7e 4f 8e 3d
       -0.10726194 0.014212505 -0.015800174 0.06948756
0002a0 9e 9b 45 3d 8d b6 92 bc 83 92 39 bc 2d 33 ca bd
       0.04824411 -0.017909313 -0.011326435 -0.09873042
0002b0 5f c0 9b bd 09 53 ea bc 27 49 83 3d 83 49 0f 3d
       -0.07605051 -0.028604047 0.06410437 0.034982216
0002c0 d3 75 e3 3c fd 0a 93 3d 63 89 01 bc 32 d3 83 3b
       0.027766144 0.0717983 -0.007906291 0.004022979
0002d0 7d c9 98 3c d0 05 ca 3b d8 7f aa 3d ba 85 19 3b
       0.018650765 0.0061652437 0.083251655 0.0023425655
0002e0 34 0d c7 be e6 cb 7b 3d 30 91 dc 3b 13 7b 35 bd
       -0.3887726 0.06147375 0.006731175 -0.044306826
0002f0 71 2e c2 3d 81 b7 a8 3c 8f 27 6e bd a1 bb c6 3d
       0.09481514 0.020595314 -0.058143195 0.09703756
000300 16 6f 02 3c 5a a3 38 bd 5b 89 4f bd e4 91 94 bd
       0.007961055 -0.04507766 -0.0506681 -0.07254389
000310 28 e3 82 3c 6e 13 b8 bc 57 c1 bb bd 0f 87 d6 3b
       0.015977457 -0.022470202 -0.09167736 0.006546862
000320 f2 20 b2 bd e0 94 77 3d e0 46 70 3d ca a1 06 bd
       -0.0869769 0.060444713 0.05866134 -0.032869138
000330 33 15 0f 3d f0 4a 64 3d 9c 58 07 3c 2c 42 9c bd
       0.034932327 0.05573553 0.008260872 -0.07629809
000340 95 44 ac 3c ed e5 3d bd 6e 1e 23 3c 30 a2 23 3d
       0.021028796 -0.046361852 0.0099559855 0.039949596
000350 18 92 8d bc c8 24 4c 3c 4c 94 2d 3c f6 43 aa 3d
       -0.017281577 0.012459941 0.010594439 0.08313744
000360 49 82 a3 3c fa 87 0c 3d 3e fa 4b bd e9 a4 84 bc
       0.019959586 0.034309365 -0.049799196 -0.016191917
000370 21 b6 26 bd 81 74 6f 3d db dc 65 3d cf 99 12 bd
       -0.040701035 0.058460716 0.056118827 -0.035791215
000380 56 ab 93 bd 72 74 9d 3d 49 48 f8 bc 84 94 04 3c
       -0.07210414 0.07688226 -0.030307906 0.0080920495
000390 a2 83 94 bc 80 92 00 3d 87 48 89 bd 75 4d 94 bc
       -0.018129174 0.031389713 -0.067032866 -0.01810334
0003a0 eb 77 31 bc 58 6a b4 bc 75 ac 60 3c 54 c2 a2 3c
       -0.010831813 -0.022023365 0.013712992 0.019868053
0003b0 a6 a5 c1 3b c1 f1 ac 3d cc fb a5 3d 1b 3d 44 bc
       0.0059096394 0.084445484 0.08104667 -0.011977459
0003c0 7c 5e 6b 3d d7 21 1a 3d 6c b0 ee bc 6e 7f c7 3d
       0.057463154 0.03762993 -0.029136859 0.09741102
0003d0 4e 5d b5 ba bc 2a 1a bd bf 19 09 bd b1 3e c7 bc
       -0.0013837011 -0.03763841 -0.03347182 -0.024321886
0003e0 86 4b ee be 63 a7 66 3c a7 c7 a8 3d 41 21 2d bd
       -0.46541995 0.014077994 0.08241206 -0.04226804
0003f0 89 dc 83 3d 32 01 1c bd 79 76 cb bb 57 bb 89 3d
       0.06438548 -0.038087077 -0.0062091914 0.06725185

act_fc1.bias f4 [64]
000000 e6 0c cb bd b4 dc ac bd 6d 03 59 bd 59 34 6e bb
       -0.099145696 -0.08440533 -0.052981783 -0.003634712
000010 8c d8 5b bc 43 74 21 bd 89 c1 dc bd 21 d0 c6 bd
       -0.013418328 -0.039417516 -0.107791014 -0.09707666
000020 fa b1 76 bd 59 74 43 bd 4c dc 9e bd 1b 75 67 bc
       -0.060228325 -0.04771838 -0.07756862 -0.014127041
000030 71 4d 4c bb e1 41 55 bd 5f 52 b3 3c 36 54 ae bd
       -0.0031174088 -0.05206478 0.021889864 -0.08512156
000040 32 c4 82 bd a5 a8 a5 bd b1 74 d5 bc 49 eb 12 bd
       -0.063850775 -0.08088807 -0.02605662 -0.035868917
000050 32 b5 29 3d c7 08 18 3d 48 25 13 bd 0b 65 04 bd
       0.041432567 0.037117746 -0.035924226 -0.032322925
000060 dc 37 c2 3a 27 6a 28 bd 1a 6a e4 bb 1d 9e 3a 3e
       0.0014817673 -0.04111686 -0.006970656 0.18224378
000070 f2 31 1f 3e 96 3a b7 3c a1 bd 8e 3d 38 4c d4 3c
       0.15546396 0.022366803 0.069697626 0.02591525
000080 21 25 39 3b f7 73 f4 bc 61 c1 10 bd 47 2a a2 3d
       0.002825089 -0.029840453 -0.03534067 0.0791822
000090 61 dc 01 3e 21 59 2b 3b 09 e2 c9 3c b2 52 0b bd
       0.12681724 0.0026145654 0.024643915 -0.03401441
0000a0 59 e9 31 bd a2 e6 46 bd 1a 06 18 3d dd 68 c1 bc
       -0.04343543 -0.048559792 0.037115194 -0.023609573
0000b0 3b 2e a1 bc c6 e1 4d bc d2 de 42 3c c3 35 35 bd
       -0.019675365 -0.012566036 0.011893945 -0.044240724
0000c0 3c 93 99 bd bf b9 85 bd 6d d1 d6 bc 4e 1b 83 3c
       -0.07498786 -0.06529569 -0.026222909 0.01600423
0000d0 92 e6 5b 3c 58 d5 30 bd 21 ec ac bd 35 97 8f bd
       0.013421671 -0.04317221 -0.084434755 -0.07011262
0000e0 5d 78 4b bd f0 69 2a bd 51 ca 83 bd f0 52 2a bd
       -0.049675334 -0.041604936 -0.06435073 -0.041583
0000f0 6c e6 f4 bb 55 d3 6b bd 32 88 f2 bd 80 15 14 bd
       -0.0074737575 -0.05757459 -0.118423834 -0.036153316
