Gomoku-server/model/PytorchCheckpoint-1399.pth (torch, 481663 bytes, 15 tensors)

conv1.weight f4 [32, 4, 3, 3]
00000000: 66ed 56be 1d8b 5d3e e4ce 633d d2d0 ef3d
00000010: 22e8 c73d aba1 c0be 8cbf efbd 098e f4bd
00000020: 7b86 1c3e 8478 edbc 62b3 19be a103 a3bc
00000030: 1f95 b03c 136a 09be 11b6 af3d 0bd7 8d3e
00000040: 5481 113e 9f87 5fbe 0fc6 343d 55cd 8c3b
00000050: 1ae1 abbd 7d49 28bd 0554 89bd e97f b9bd
00000060: 0897 b7bb 97fb 843d 4bce 0fbd 7998 bdbd
00000070: 0c70 f53d 0b07 d9bd 5352 4b3d a183 8b3d
00000080: 41ce 27bd 67a9 933c b8d9 cebb be5b 54bc
00000090: 2ccb a6be 17da 053c 7f09 bcbd 9ab2 a0bd
000000a0: 1d3b 95bd ae58 b23d 6bc8 843c 45ec dbbd
000000b0: f859 fc3b af6f f4bc 5d44 d0bd c76c 86be
000000c0: 9143 753e 9e84 023d 7ae5 e63d 8534 a13d
000000d0: b097 6ebe b377 7a3e 68e7 df3c 9dfa 32bd
000000e0: d40e 27bd ba68 313d a3c0 4cbc 31e0 f83c
000000f0: 5bf6 093e 5cf8 03bd 1ba5 d83d 41f8 3dbb
00000100: 0c37 133e 5c7e bb3d ecf5 473c 1fe0 6abd
00000110: f780 9a3d ad81 62bd fbd6 0f3e c651 1cbe
00000120: 2e69 0d3e 7412 fd3d f826 2b3e 89ab 2a3e
00000130: 7d84 ccbd aea5 ecbb 6f28 3b3e 0411 82bd
00000140: db2a 11be 4dde bfbe 4d0b 09be bf22 adbb
00000150: 50e6 00be fde0 af3e df28 c03b 2388 db3c
00000160: 8b4d 2c3e 4882 7a3e 37f0 acbd 0683 cfbb
00000170: 81c3 0dbd 5984 f83c deca a33d 0b13 c93c
00000180: 5590 22bd a81b 093d daef 2c3d da28 b93d
00000190: af34 2c3e 876d 83bc 9593 e1bd cae7 9d3d
000001a0: 26b4 1dbc 773e 85bd 1b90 053c 1f12 9ebd
000001b0: c6a2 97be 2204 673e 9214 1c3e 7b18 9b3e
000001c0: 989c debc 85ff 6ebe a0b2 dabc 8526 7bbc
000001d0: 267f 923d 7665 ac3c 63eb 31be 7e55 bebc
000001e0: 0283 1fbe 11cc 2f3e 04fb 5d3e 0bb8 343a
000001f0: 4cdf 4b3e 1cd8 9a3e 3bce 8ebb 667b 833c
00000200: 493f c13d f064 16be 169e c43d 68c3 583c
00000210: de2d 6dbb eecf 653d ecae babd f7a5 2bbd
00000220: cf08 2dbe bdac a23c 6934 4ebd be55 89bd
00000230: 7b7f e93d bebb d03d 9fd1 343d bd48 ff3d
00000240: 06df 31be 7a0e afbd d548 133e fd4e a9bc
00000250: 72a2 e13e 5c52 a43d dbf5 72be 479a 113e
00000260: e4a2 653e f600 1bbd c0ca 73b8 a202 8aba
00000270: 8916 05bd 1a6e 493d 798c 45be ec3a 9cbc
00000280: d607 49be 3854 af3d 2c51 5dba 59e6 5b3d
00000290: db07 1dbd 18ab fe3d 3d2f b13c 3a54 953c
000002a0: f5d0 b43b 6744 d7bd 7a34 2ebb d04f b9bd
000002b0: 9275 fabd fb3a f63d 8bba 5f3d d0bf 2abc
000002c0: 1028 eabd fdbd 29ba 8725 243d b201 a23d
000002d0: e062 2c3e cac5 113e 4344 323a 7f7a 393e
000002e0: 84aa afbd 910f 1fbe 71c7 f7bd 8ff0 fd3d
000002f0: b782 893c 203c a23d e9dd 5c3e 584f edbd
00000300: fd9d 2fbe c6bd 8c3d 07b0 973e b0bb 623d
00000310: ac32 c1be ab43 9f3e f106 723d b392 d3bc
00000320: c129 a8bb c96a e43c 3382 723d 26d4 6e3d
00000330: 9d47 f33c 0429 20bd 581b 6dbd 3b88 f9bd
00000340: 0197 a93d 2b76 1bbd 7a46 a1bd 87e2 7e3d
00000350: 4fe7 173e ad8d dcbd 0c93 6c3d c92e b03d
00000360: 9c03 dfbd 799b 9cbd 1a97 ca3e ba89 51be
00000370: fb56 f73b 97d0 58be d36d c4bb 8098 bdbd
00000380: fc6f 35be ea26 9f3d 54ff 523d 1aab ffbd
00000390: bc5c b9bd e5df a8bc 3943 a43e 1899 a1bd
000003a0: c237 fe3c 0447 123e e91c bd3d 9378 6fbc
000003b0: 4c15 1ebd 5577 2e3d 698c 153d 8e7a bfbd
000003c0: cc7f b2bc 0e61 a63d 7016 94bd 4961 63bd
000003d0: b8ca ac3d 3fe9 a33b ceea 8f3d ab32 f03d
000003e0: 1b54 d0bd 6e86 2b3e a044 203e d5f2 fdbc
000003f0: 288c a3bb 20aa 913c b97c de3e cdf9 1fbd
-0.20988998 0.21635099 0.05561723 0.11709751 0.09761073 -0.37623343 -0.117064565 -0.119411536
0.15285675 -0.02898813 -0.15009835 -0.019899191 0.021555481 -0.1341937 0.08579648 0.27703127
0.14209491 -0.21829079 0.044134196 0.0042969384 -0.08392544 -0.04108571 -0.067054786 -0.090576
-0.005602721 0.064932995 -0.035108846 -0.092575975 0.11984262 -0.105970465 0.049639057 0.068122156
-0.040968183 0.018025113 -0.006312575 -0.012961326 -0.32576883 0.008169672 -0.09181499 -0.078465655
-0.072866656 0.087083206 0.016208848 -0.10738424 0.007701155 -0.029838411 -0.10169289 -0.26254866
0.23951556 0.031864755 0.11274238 0.078713454 -0.23300052 0.24459724 0.027332023 -0.043696035
-0.040785626 0.043312766 -0.0124971 0.03038034 0.13472883 -0.032219276 0.10578366 -0.0028987082
0.14376467 0.091549605 0.012204628 -0.057342645 0.07544129 -0.05529945 0.14046852 -0.15265569
0.13809654 0.12357035 0.16714084 0.16666998 -0.09986208 -0.007221899 0.18277143 -0.06350902
-0.14176504 -0.3747429 -0.13383217 -0.005283683 -0.12587857 0.3435134 0.005864247 0.026798313
0.16826455 0.24463761 -0.08444255 -0.006332758 -0.034610275 0.030336546 0.07997678 0.024545213
-0.039688427 0.03347364 0.042220928 0.09040995 0.16816972 -0.016043438 -0.11014477 0.07710226
-0.00962547 -0.06506055 0.008152033 -0.077183 -0.29616374 0.2256017 0.15242222 0.30292115
-0.02717428 -0.2333966 -0.026696503 -0.015329008 0.07153158 0.021044474 -0.17374949 -0.023234125
-0.1557732 0.17167689 0.21677786 0.00068938796 0.199094 0.30243003 -0.0043580807 0.016050052
0.09435899 -0.14686942 0.09600465 0.013230182 -0.003619067 0.0561065 -0.09115395 -0.041906323
-0.16897891 0.019857759 -0.05034295 -0.06705807 0.11401268 0.10192059 0.044145223 0.124650456
-0.17370233 -0.08547683 0.14383252 -0.020667547 0.44069248 0.08023521 -0.23726599 0.14219008
0.22425419 -0.037842713 -5.812454e-05 -0.0010529349 -0.032492194 0.049177267 -0.19291867 -0.019071065
-0.19631895 0.08560985 -0.00084425765 0.053686474 -0.03833757 0.12434977 0.02162897 0.018228639
0.0055180737 -0.105110936 -0.0026581571 -0.09048426 -0.12229456 0.120229684 0.05462126 -0.010421708
-0.114334226 -0.0006475149 0.04007485 0.079104796 0.16834593 0.14235607 0.0006800333 0.18113135
-0.08577445 -0.15533282 -0.12098587 0.123993985 0.016785963 0.07921624 0.21569027 -0.11587399
-0.17150111 0.06872134 0.29626486 0.055354774 -0.37733972 0.31106314 0.05908865 -0.025826788
-0.0051319306 0.02788295 0.0592062 0.05830779 0.029697234 -0.039101616 -0.057887405 -0.12184187
0.08280755 -0.03795449 -0.078747705 0.062227752 0.14834331 -0.1076921 0.057757422 0.086026736
-0.1088936 -0.076468416 0.39568406 -0.20462695 0.0075482107 -0.2117332 -0.0059945374 -0.09257603
-0.177185 0.07771094 0.05151303 -0.12483807 -0.09050891 -0.020614574 0.32082537 -0.078905284
0.031032447 0.14284903 0.0923403 -0.0146161495 -0.03859453 0.042594273 0.03651086 -0.09349547
-0.021789454 0.081239805 -0.07230842 -0.0555127 0.08437103 0.0050021703 0.07027207 0.11728414
-0.10172292 0.167505 0.15651178 -0.03099958 -0.004991073 0.017781317 0.4345453 -0.039056588

conv1.bias f4 [32]
00000000: 2868 143e ad70 06bd f02f fabd 6e3e 1bbe
00000010: b042 4c3d a2ff a3bd c342 9dbd f818 6fbd
00000020: cc6b 253e d9b0 813d 7d5b cbbd f3ec 113e
00000030: d046 3f3d 15aa 203e 91d6 2a3d 059f e33d
00000040: 451b b3bb d709 2c3e 0437 773d 8865 bbbd
00000050: c0f4 67bd cbca af3d 1083 323d c11b be3d
00000060: b7ad 9ebc 10d5 e7bd d71f 563e 6996 8abd
00000070: e899 5c3d 86f5 b7bb 7b48 22be b516 b63d
0.14492857 -0.0328223 -0.122161746 -0.15160534 0.049868286 -0.080077425 -0.076787494 -0.05837342
0.16154402 0.06332559 -0.099295594 0.14250545 0.04669839 0.15689881 0.041708533 0.11114315
-0.0054658973 0.16800629 0.0603552 -0.09150225 -0.056629896 0.085836016 0.043582022 0.092826374
-0.019369943 -0.11319935 0.20910583 -0.0676697 0.053857714 -0.0056139855 -0.15847962 0.0889105

conv2.weight f4 [64, 32, 3, 3]
00000000: 3c3f 4000 f039 6f00 35a6 5f00 6df2 7900
00000010: 3f04 0f00 b3da 6c00 e293 bc00 63e0 0c00
00000020: 5eca 6c00 ae1c 0a80 8bff 4880 1530 8b00
00000030: 2d61 cd80 7d09 2b80 130d e500 8346 8780
00000040: 3cc6 fa80 36e8 b700 da79 de80 8f94 0881
00000050: 5b7e 4480 464e 3f00 d3c0 8900 a7b1 5200
00000060: da21 e680 3a80 3200 9ff6 2300 a344 e580
00000070: 1b58 e780 b1f9 e680 838b 6500 d258 1680
00000080: adca 2f00 5f38 c280 f4cb 1900 a7ab 3d80
00000090: 1842 2280 22fe 7300 950a 4700 6575 b684
000000a0: bffc 5085 4924 5801 0054 0300 f881 0101
000000b0: 8d4a bb80 0d11 0f01 6a61 0601 fbd1 0700
000000c0: b47b 1a00 738b 5480 18b5 5b00 cf81 4380
000000d0: 910a b200 f934 ee00 8cfe 3f00 8164 9e80
000000e0: 4712 0400 f681 4b00 020d 5280 69bd 5580
000000f0: a16a a300 f2ba 9e00 a44f f100 ec33 0780
00000100: 1d31 bc80 e8ec 2000 9315 5800 3a3c 7780
00000110: e58b 1700 aebc 5a80 0b90 0800 6593 1b80
00000120: 8149 8b00 7f62 f200 9390 da00 685f 0580
00000130: 07c3 5a80 d241 e100 93b8 7500 ee11 1780
00000140: 5f81 7c00 029a 2c80 64d9 4780 2bbe 5380
00000150: b373 6500 521a 4f80 4c1c 5880 dda9 1c80
00000160: 439f 9700 578a 0701 ab16 a400 b206 4d80
00000170: 3400 8f80 683a 0a00 c3fc 0280 9092 9a00
00000180: 69b9 a200 aae3 9180 56eb 9380 c4aa 3000
00000190: d143 3800 1baf 7b00 e7e6 4200 909e f100
000001a0: 2109 1780 b001 7a00 8cac db80 ce7c 2580
000001b0: 12ff 7180 ee76 c100 8071 5880 59f6 7700
000001c0: bc1e 8f80 ef4b ba00 d817 1a00 1380 2500
000001d0: 5f8b 1200 1eb7 0281 1e37 7280 8a3e 2180
000001e0: 22fa 3380 a5be 0085 5223 9d00 d2b6 1380
000001f0: 7bff 1f00 0072 8a00 6de5 2d80 eceb 5b00
00000200: 7994 ec80 1540 5f00 ff5b 4a00 7c3b 6d80
00000210: 9942 3400 bc58 1c00 f2bc 5380 de8e 0881
00000220: e022 5b80 7198 b280 abc5 c680 6bd8 0700
00000230: b9f7 4280 03bb 1b80 f936 5000 6a59 1000
00000240: 43cd 0601 67e9 4e80 4ba1 a700 2c8e ae00
00000250: d63e 0400 7a7f ce00 579b 0501 18f0 9380
00000260: 4952 6000 4c3a 1390 e2af 2497 b605 3b96
00000270: e0d4 0d16 70bc fe9b 635c bd98 e86c 3a94
00000280: 3bdd ab18 a923 9c13 6847 f980 5e68 ce80
00000290: e619 5080 ccb3 aa00 c7de 1600 84a8 8080
000002a0: b17d 3e80 d253 2980 74ef 1580 576d f280
000002b0: a747 0300 2400 1080 a7ef 8680 4f3e 4b00
000002c0: 6e0c 8380 cdf0 2d80 742f 4380 8a5d 4d80
000002d0: 6b28 a100 2936 5d80 0d8b 6400 f091 6800
000002e0: d780 1a00 4326 2d00 eaeb 6900 1566 5800
000002f0: 96be 2100 6264 6880 31d4 5a00 fe61 ad80
00000300: d2f0 6d80 c4f4 1b00 a11e 3780 ddc7 6600
00000310: 7ab2 2480 dba1 6000 66fe 6700 0bb0 c500
00000320: 859f 3180 66e8 5a80 c47f 4400 35df 0480
00000330: b25f 0b00 bc4f 1600 4d23 3380 82bd 0800
00000340: 2995 3800 2f32 2f80 2fce 1b00 9917 2d86
00000350: 31ff c386 cafb 4500 12e7 d503 42fc 4883
00000360: 693c 3a00 70c2 8180 2b4e 7d80 da6f 7d80
00000370: 28b8 1d80 78bb 4f80 9c26 5400 bcc9 8e00
00000380: c684 5380 9828 1e00 0e22 2d80 124d 4300
00000390: 8a18 d500 72e9 1e80 cd41 6000 1bc2 4600
000003a0: b686 2980 9df2 4480 a65d e080 1cc2 2200
000003b0: 35b0 ef80 2a96 e080 5ba3 fe80 e0b5 8380
000003c0: d026 db00 6a72 1f00 005e 1100 d02d 5980
000003d0: 7d8e 6000 ac9c de80 89fb f000 17aa 6900
000003e0: 823d 0480 2fa1 7a00 07a3 4c00 d923 8600
000003f0: a904 2383 9343 e885 bcdb 4683 c287 a583
5.900156e-39 1.0214524e-38 8.783996e-39 1.1199061e-38 1.379056e-39 9.996688e-39 1.7318124e-38 1.182521e-39
9.990829e-39 -9.28643e-40 -6.703827e-39 1.2782383e-38 -1.8861137e-38 -3.95233e-39 2.1035019e-38 -1.2423087e-38
-2.3029987e-38 1.6889197e-38 -2.0431192e-38 -2.508584e-38 -6.290142e-39 5.813715e-39 1.2650635e-38 7.59424e-39
-2.1134308e-38 4.637774e-39 3.302713e-39 -2.1054951e-38 -2.1245606e-38 -2.1211737e-38 9.325432e-39 -2.052244e-39
4.388975e-39 -1.7836308e-38 2.369052e-39 -5.663543e-39 -3.146117e-39 1.0652248e-38 6.524116e-39 -4.2895804e-36
-9.826535e-36 3.9698968e-38 3.0564e-40 2.3786806e-38 -1.7199982e-38 2.6277185e-38 2.4681804e-38 7.18175e-40
2.432099e-39 -7.764207e-39 8.421994e-39 -6.199545e-39 1.6350509e-38 2.1875851e-38 5.87695e-39 -1.4546062e-38
3.73899e-40 6.934283e-39 -7.535177e-39 -7.873965e-39 1.5007437e-38 1.4577072e-38 2.2160924e-38 -6.61475e-40
-1.7282692e-38 3.023722e-39 8.089263e-39 -1.0950029e-38 2.162401e-39 -8.33288e-39 7.86357e-40 -2.532434e-39
1.2791502e-38 2.2259524e-38 2.0072002e-38 -4.93403e-40 -8.335157e-39 2.0686599e-38 1.0810966e-38 -2.118648e-39
1.1434011e-38 -4.09601e-39 -6.598305e-39 -7.690566e-39 9.31689e-39 -7.264446e-39 -8.091675e-39 -2.63233e-39
1.3924292e-38 2.4894838e-38 1.5069153e-38 -7.073735e-39 -1.3132549e-38 9.39307e-40 -2.74345e-40 1.4195243e-38
1.4943863e-38 -1.3397817e-38 -1.358424e-38 4.469363e-39 5.167116e-39 1.1358582e-38 6.143975e-39 2.2189236e-38
-2.115491e-39 1.1204536e-38 -2.0173872e-38 -3.442685e-39 -1.0468913e-38 1.7766915e-38 -8.12224e-39 1.1016797e-38
-1.3143501e-38 1.7108642e-38 2.396276e-39 3.443858e-39 1.703036e-39 -2.400861e-38 -1.0489019e-38 -3.053006e-39
-4.773341e-39 -6.053547e-36 1.4430843e-38 -1.810458e-39 2.93855e-39 1.2714194e-38 -4.2149e-39 8.441663e-39
-2.1726439e-38 8.74736e-39 6.828829e-39 -1.0031408e-38 4.799337e-39 2.603226e-39 -7.690127e-39 -2.5081757e-38
-8.369541e-39 -1.6401404e-38 -1.8254338e-38 7.20485e-40 -6.150009e-39 -2.546646e-39 7.36656e-39 1.501444e-39
2.475918e-38 -7.246898e-39 1.5394389e-38 1.6030378e-38 3.89883e-40 1.8963842e-38 2.4539693e-38 -1.3585947e-38
8.845726e-39 -2.903555e-29 -5.3213253e-25 -1.5107542e-25 1.1457061e-25 -4.214255e-22 -4.894864e-24 -9.412078e-27
4.442585e-24 3.94151e-27 -2.2892654e-38 -1.8955552e-38 -7.35613e-39 1.5676533e-38 2.100298e-39 -1.1815396e-38
-5.73889e-39 -3.795324e-39 -2.014445e-39 -2.2263414e-38 3.0121e-40 -1.469418e-39 -1.2391928e-38 6.910014e-39
-1.2034909e-38 -4.21898e-39 -6.170001e-39 -7.104889e-39 1.4800014e-38 -8.56013e-39 9.233432e-39 9.603244e-39
2.433942e-39 4.146323e-39 9.727357e-39 8.118144e-39 3.098941e-39 -9.586902e-39 8.341315e-39 -1.5922694e-38
-1.0096459e-38 2.567364e-39 -5.06194e-39 9.438918e-39 -3.370103e-39 8.87427e-39 9.550317e-39 1.8154745e-38
-4.557164e-39 -8.348564e-39 6.290647e-39 -4.47414e-40 1.04452e-39 2.048984e-39 -4.696274e-39 8.02667e-40
5.196296e-39 -4.334271e-39 2.553523e-39 -3.255502e-35 -7.372582e-35 6.426974e-39 1.2572066e-36 -5.9064295e-37
5.34813e-39 -1.191653e-38 -1.1507478e-38 -1.1519562e-38 -2.729292e-39 -7.322255e-39 7.728032e-39 1.3113009e-38
-7.669976e-39 2.769627e-39 -4.144814e-39 6.180626e-39 1.9569764e-38 -2.838809e-39 8.839813e-39 6.498117e-39
-3.81358e-39 -6.331847e-39 -2.0604746e-38 3.19204e-39 -2.2011895e-38 -2.062502e-38 -2.3384817e-38 -1.2095694e-38
2.0125897e-38 2.887944e-39 1.594924e-39 -8.189794e-39 8.867323e-39 -2.0443683e-38 2.2130753e-38 9.703744e-39
-3.89407e-40 1.1261752e-38 7.037981e-39 1.2318816e-38 -4.7906744e-37 -2.1841998e-35 -5.8439213e-37 -9.728997e-37

conv2.bias f4 [64]
00000000: 793d 03b3 ea54 26bd 798c ab3c e6f4 173d
00000010: 0a4a 1d3c 0c6a a83c b518 053c 1086 c4bb
00000020: f7f4 0cbd 96d7 85bd 3a87 22bc c772 eca7
00000030: c82a 073d d143 a0bc 3100 bdbc 9fb6 fb3b
00000040: 9634 07bd ae31 a83c cc75 743c 8704 0e3d
00000050: e012 39bc 783d 06bd b6a8 e63c e515 a7bc
00000060: 7e07 35bd a5f1 763d ec1a 8fbd 13d3 00bd
00000070: 8c51 2dbc b278 b3bd 339b 92bd 51d2 f43c
00000080: a9d7 e9bb 5576 a2bd 97c7 c93c e5e5 0f3e
00000090: 23ca 783c 0ec4 a03c 575a 503d 1c7c a73b
000000a0: f3f0 2bbc 779e abb1 3e5f 5dbc 43a6 babd
000000b0: 52cc 303c 2468 a23d ff7d c4bd 6294 633d
000000c0: 5a2f 523d dc45 86bd 7221 1f3c 7ecc d13b
000000d0: a536 6fbd dd15 42bd 309b dbbc 41b7 8abb
000000e0: 9f9f b6bc 14e3 adbd 5dfd 4d3d fa2b 90bc
000000f0: 18bc eabb 52f4 3abd 8df7 993d a60e c5ba
-3.0556723e-08 -0.040608324 0.020941006 0.037098788 0.009600172 0.02055838 0.008123566 -0.005997427
-0.034413304 -0.065352604 -0.009919936 -6.56276e-15 0.032999784 -0.019563587 -0.02307138 0.0076816822
-0.033009134 0.020531502 0.014920663 0.034672286 -0.011296004 -0.032773465 0.02815662 -0.020396182
-0.0441966 0.060289044 -0.06987557 -0.031451296 -0.010578524 -0.08763255 -0.07158508 0.029885443
-0.0071363044 -0.07932726 0.024631305 0.14052542 0.015184912 0.019624736 0.050867405 0.0051112305
-0.0104944585 -4.9947704e-09 -0.013511477 -0.09113743 0.010790901 0.079300195 -0.09594344 0.05556143
0.05131469 -0.06556293 0.009712564 0.006402551 -0.058401722 -0.04738413 -0.026807398 -0.0042332713
-0.02229291 -0.08490577 0.050290454 -0.017599095 -0.007163536 -0.04564316 0.0751792 -0.0015034273

conv3.weight f4 [128, 64, 3, 3]
00000000: 7b7c 4280 6eeb 4180 5bc5 5400 5ded b080
00000010: 0e71 e080 3034 dd00 9ba0 7100 22a1 6100
00000020: 4b73 bb80 ce9c d73d 090e 88bd a9a3 3939
00000030: d7d4 473d ad99 333e da4a 623d 8c9f febc
00000040: 1fa6 9e3d ddda babc d9fe 40ba 7851 7abd
00000050: d2bc 173d d0f2 3fbb ed65 d93d f31b 6cbc
00000060: 947e e33b 7caf 4e3c 5efd 4b3c dd5c b4bc
00000070: 3ce8 b53d ef50 3b3d aa22 2f3d eeeb b93d
00000080: 0a74 4b3c 6002 c53c 481d 72bd b1a4 be3c
00000090: 301e 6fbb 50a5 0fbc eaa1 033d a34f 38bd
000000a0: 78ed 02bd 7f3f 433d 0946 9d3b 796a 623d
000000b0: 9fab c13b 74ca 63bd be63 d23d ec9e 3dbb
000000c0: ef64 a23c f4ee 0b3c 1b60 0f3d c08f 2c3d
000000d0: 5e38 6bbc f850 81bc b4d0 e43d b648 67bd
000000e0: 1573 833c 6ddc e03d 124f 3e3d 6235 9fbc
000000f0: d1b6 ccbc 2bd3 61bc 2f87 76bd dc46 84bd
00000100: bc96 d83d 4fbf 893c dbac b6bb e795 693d
00000110: 08bb 903b aefc eebb dfa8 c6bc 8a51 84bc
00000120: 08c8 1d3d e5fd e839 5022 abbc 1c54 883d
00000130: 8c08 47bc 3453 993d a891 a2bd 2ff2 193d
00000140: 9c56 debc 2014 eabc e529 afba 91a5 213d
00000150: 5204 59bc 812a e13d 7bed dc3d f52d 073d
00000160: 377d a03d ff3d 523d 34ed 453d ee43 7bbd
00000170: 280d a3bd d3a1 1c3e dbbf 2bbc ce3e e93d
00000180: 7f5b 8dbc da5a 1f3d 9bf0 923d b8e6 6e00
00000190: 9d32 7900 96da 4100 ebf9 8100 cb9b 7900
000001a0: 5d9b b780 3d4b bf00 ab65 1980 9fef 9b80
000001b0: 0fac da3c 2bcc 213d d152 a2bd 7fb3 e33d
000001c0: b3fc 043d b951 e33c d8e7 353c b96a 153d
000001d0: 6bcd a93b 8b46 69bd 2864 053e 776d 8ebd
000001e0: f02c 023d 4582 24be 7c8e 013d c16c 153d
000001f0: 0c5f 573c 1acf 5ebd d13a 3bbc e8a0 593d
00000200: a138 2ebd f62b 11ba 9afc 183c bbda f93d
00000210: a099 783d fbec 303d a45f 95bc 6aed 82bc
00000220: bf80 863d 4748 c13c fac6 12bd 45cc 2dbc
00000230: bdb0 483d dd29 6ebd 4a39 803c 3fdf 563c
00000240: 0612 2dbd 2eb0 b63b 50ef 11bd c476 b6bb
00000250: c184 dd3b e2e1 853c 2b63 ef3c 7cc0 4d3d
00000260: a246 383c e824 d8bb 3f60 183e 1783 a93d
00000270: a0d3 2abc 2893 d93b 9ed6 c5bc 7b0f 35bd
00000280: a915 bcbc 5ee0 62bc 339e f23c 70c6 59bc
00000290: 1cdc 843d 1dd0 c1bd 3080 5cba 2d53 933d
000002a0: 8b72 e63c 6665 a43d 7c2c 94bd af0f ca3d
000002b0: 4083 fe3b 92cd b3bd fc2c 30ba 92ef c23d
000002c0: 9e89 02bd b604 2ebc 8a7f babd e701 2f3e
000002d0: c181 7d39 0b9f 2b39 d052 a837 3ae4 003a
000002e0: 06c5 f239 c5fa 9039 129e 133a 77f2 1e3a
000002f0: 662e 393a c561 56bd 1bcf a1bd 79e7 533c
00000300: f5d8 0abd 879d 14bd af2f eabd c52d 953c
00000310: c7d5 0ebd 3822 10bc 1176 d5bd be31 3b3d
00000320: 8836 463d f4d4 71bd d620 29be 341e eeba
00000330: 1ae4 6bbd 068b 3bbd c5f9 e4bd 3f68 743d
00000340: d1d6 3fbd 5b71 ad3d ba8a 3c3d d1a9 6c3d
00000350: 0855 5a3d e8e5 c2bc a6ff e1ba fbb7 f1bc
00000360: eea6 bcbc d7b2 843d 6c7a f7bb 9370 d23c
00000370: e831 05bb 10a1 0d3d c667 f13c 2001 f33c
00000380: 81e9 30bd 0d1f 1bbe 8a49 b53d ef9b d43c
00000390: 1434 663b 75fa 48bd b132 c43c cf2e 8f3c
000003a0: c372 5cbd 3806 f6bc c8c3 353d b785 623d
000003b0: 129e 8ebd 9b75 6ebb 4fd5 723c fb52 3d3d
000003c0: d4fe 9739 133e 8c3d f84d 813d e29e ddbd
000003d0: 5cfb 79bd 201f a73d 28a4 223d aba7 723d
000003e0: 345a 6d3d fc9d 9e3c 9b81 39bd 8990 1e3d
000003f0: fd90 3dbc 0b77 f4bc 0941 e83d 29e2 72bd
-6.105798e-39 -6.053764e-39 7.78498e-39 -1.6248197e-38 -2.0611708e-38 2.0314366e-38 1.0435025e-38 8.965847e-39
-1.7214597e-38 0.10527955 -0.06643302 0.00017703943 0.048786964 0.17539091 0.055247165 -0.031081937
0.07746529 -0.02280944 -0.0007362194 -0.06111285 0.037045307 -0.0029289015 0.10615144 -0.0144109605
0.0069425795 0.012615081 0.012450544 -0.022016937 0.08882186 0.04573148 0.042757668 0.09078203
0.012417803 0.024048984 -0.059109956 0.02327189 -0.00364865 -0.008767441 0.032136835 -0.044997822
-0.03196475 0.047667976 0.0047996086 0.05527732 0.0059103514 -0.055612996 0.102729306 -0.0028933836
0.01982352 0.008540858 0.035003763 0.04212928 -0.014356701 -0.01578568 0.111726195 -0.056465827
0.016046086 0.10979543 0.046462126 -0.019434635 -0.024989517 -0.0137832565 -0.060187515 -0.06458828
0.10575625 0.016814856 -0.005574805 0.057027724 0.004416827 -0.0072933054 -0.024250446 -0.016152162
0.038520843 0.00044439654 -0.020890385 0.066566676 -0.012148034 0.07486573 -0.07937938 0.03758448
-0.027140908 -0.02857405 -0.0013363926 0.039464537 -0.013245659 0.10994435 0.10787483 0.033002812
0.07836383 0.051328655 0.048321918 -0.06134408 -0.07961494 0.15296106 -0.010482754 0.11388932
-0.017255543 0.038905002 0.07174798 1.0184671e-38 1.1130252e-38 6.047721e-39 1.1936433e-38 1.1167983e-38
-1.686163e-38 1.756757e-38 -2.332359e-39 -1.4320462e-38 0.026693372 0.03950135 -0.07925952 0.111182205
0.032467555 0.02774893 0.011102639 0.03647873 0.0051819584 -0.05695204 0.13026488 -0.069544725
0.031781137 -0.16065319 0.031630024 0.03648067 0.01314522 -0.054396726 -0.011427597 0.053131968
-0.042534474 -0.0005537862 0.009337569 0.12199923 0.060693383 0.043194752 -0.018234082 -0.015982348
0.06567525 0.023594035 -0.03583429 -0.010607784 0.048996676 -0.058145393 0.015652318 0.013114749
-0.042253517 0.0055752015 -0.035628617 -0.005568357 0.0067602103 0.01634306 0.029222092 0.050232396
0.011247309 -0.0065961964 0.14880465 0.082769565 -0.010426432 0.006639857 -0.024150189 -0.044204216
-0.022959547 -0.013847439 0.02961645 -0.01329194 0.06487295 -0.094635226 -0.00084114354 0.07193599
0.02813079 0.08027153 -0.07235047 0.09866273 0.007767111 -0.08779444 -0.00067205704 0.09518351
-0.031869523 -0.01062124 -0.091063574 0.1709057 0.00024176297 0.00016367079 2.0065723e-05 0.0004916821
0.0004630463 0.00027652658 0.00056311593 0.0006063352 0.0007064104 -0.052339334 -0.0790083 0.012933605
-0.033898313 -0.036283042 -0.11434876 0.018210301 -0.034871843 -0.008797221 -0.1042291 0.045701735
0.04839185 -0.05904098 -0.16516432 -0.001816696 -0.05759058 -0.04578688 -0.11180452 0.05966973
-0.046835724 0.084688865 0.046030737 0.057779137 0.05330375 -0.023791268 -0.0017242327 -0.029506674
-0.023028817 0.064794235 -0.0075524356 0.025688445 -0.0020323936 0.03457743 0.029468428 0.029663622
-0.043191437 -0.15148564 0.08851917 0.025953261 0.0035126256 -0.04906698 0.023949953 0.017478375
-0.053820383 -0.030032262 0.044376165 0.0553033 -0.06963743 -0.0036386016 0.014821365 0.046221714
0.00028990826 0.06847777 0.063136995 -0.1082132 -0.06103073 0.081602335 0.039707333 0.059241932
0.057947353 0.019362442 -0.045289617 0.03871206 -0.011570212 -0.02984192 0.113405295 -0.059297714

conv3.bias f4 [128]
00000000: 06a5 e03a 21f1 e63c 369e 013d 8d1d 0bbc
00000010: 71c3 88bc b5cf 30bc 3674 9a3d 6612 273d
00000020: 52d4 ee3a 6055 2b3d c0ae 303d abea 16bc
00000030: de12 923d c674 a33d 393c 65a0 ffb8 0aad
00000040: 5e63 69b8 5f62 35bb dda6 f8bc bac4 3f3c
00000050: 98a9 413c ab29 3f3b 9920 12bb f3f2 6bbc
00000060: 9ee0 9bbd 595a 2c3b 8965 f53c f1b4 c4bc
00000070: ee5f b13d 570d 253d 252d ca3d 5627 6b3d
00000080: 3906 fabc ee47 183c 4592 d73b 0d3e 343d
00000090: bea0 16bc a570 223c b3a1 44bc 0193 01bc
000000a0: 1295 6f3d 70ad fe3a 8f9c fab8 79d0 90bc
000000b0: 96d8 733d cd8d 023d 1d35 c13c da50 a0bc
000000c0: 9379 33bd ae3b c03c 6238 a839 ad95 003d
000000d0: 0714 a93c a6d2 073d 1641 db3c 6706 debc
000000e0: b579 8cbb f851 05b6 14a6 943d babc 1ebd
000000f0: 915b 25bc ae53 ef3c 8ad7 3d3c 3da0 6a3b
00000100: a8cb d13b 9742 c63d e01f b7a7 46a3 53bb
00000110: f465 613d fde7 293d 3abb 0e3d de06 efb9
00000120: b105 583c 7271 df3b 0f40 123d eaed a4bb
00000130: 9dd4 09aa e2a4 c43c 828d 58bd bb46 133d
00000140: 9bd9 113d b0e0 89bc ac89 b63c b868 eb3c
00000150: 9b85 5d3d c344 cf3c 7956 923d 910d 8c3d
00000160: b851 2c3d dbc1 203d 19f2 80bc 5326 083d
00000170: 5735 1d3d 0c2a cc3c 52c1 88bb 13e2 d5bb
00000180: ce16 273b d0f6 97bc 821e dfbb 17f3 7a3d
00000190: 9dc3 623c 6948 9fac eb5c 23b8 65f1 b83d
000001a0: 1ec3 0298 5172 01bc 06fb 5d3d efd1 8bbc
000001b0: 2655 7f3d 5cbc ae3c ea23 343d 2ec7 f93c
000001c0: ffb0 83a4 fdbc 9fbc b3cf d43c c75a 8c3c
000001d0: 9d87 c13c 3159 cf3d 6265 9bbc 668d 823d
000001e0: ba9b f9bc 5fee 5c3d d7ab 833d 4eef 02bd
000001f0: b45b c43c f331 683d 3a39 af3d ccf9 603d
0.0017139025 0.028191151 0.031645022 -0.008490932 -0.016694756 -0.010791709 0.07541697 0.04078903
0.0018221235 0.041829467 0.043135405 -0.009211223 0.07132505 0.07981257 -1.941698e-19 -7.885469e-12
-5.5644072e-05 -0.0027677042 -0.030353004 0.011704618 0.011820219 0.0029169123 -0.0022297262 -0.014401185
-0.07611202 0.0026298969 0.029955642 -0.02401206 0.08660875 0.040295925 0.09871892 0.05741056
-0.030520545 0.009294493 0.006578716 0.04400449 -0.009193597 0.009914552 -0.012001443 -0.007908584
0.058491774 0.001943035 -0.0001195009 -0.017677533 0.059532724 0.031873513 0.023584897 -0.019569803
-0.043817114 0.023465957 0.00032085466 0.031392742 0.020639433 0.033159874 0.026764434 -0.027102662
-0.0042869695 -1.9866256e-06 0.072582394 -0.038754202 -0.010092632 0.029214706 0.011587033 0.0035801076
0.0064024515 0.0968067 -5.0827262e-15 -0.0032293363 0.05502887 0.041481007 0.034846522 -0.0004559075
0.013184951 0.0068189437 0.035705622 -0.0050332444 -1.224181e-13 0.024004404 -0.052869327 0.035956126
0.035607915 -0.016830772 0.022282444 0.028736457 0.054082494 0.025301343 0.071453996 0.06838525
0.04207012 0.039247375 -0.015740441 0.033239674 0.038380947 0.024922393 -0.004173436 -0.0065271943
0.002549577 -0.018550307 -0.0068090567 0.061266985 0.013840583 -4.527091e-12 -3.8948765e-05 0.09030417
-1.6900615e-24 -0.00790079 0.054194473 -0.017067878 0.062337063 0.021330051 0.043979563 0.030490484
-5.711204e-17 -0.019499296 0.025977945 0.01713313 0.023624236 0.10124434 -0.018969242 0.06374626
-0.030469764 0.053938266 0.0642926 -0.0319665 0.023969509 0.05668826 0.08555837 0.054925725

act_conv1.weight f4 [4, 128, 1, 1]
00000000: b1e1 a3bd e6a2 883b be0a 173d 7c30 bc3d
00000010: 4473 ac3c 5613 31bd 81be 033e 6fb2 3a3d
00000020: e6d0 593e 548c 68bd 105f 48bd ddb6 023e
00000030: a0e8 30bd 4600 383d ae91 9522 9c8e bf98
00000040: 76bb 6a3c 2ef8 553e 08cd 343d 0e4d 303e
00000050: f253 583e 472b 8cbe 2e1a 153e 6a23 20be
00000060: 7553 afbc 1e77 813d f20d 9dbe 51d8 af3d
00000070: b58e 0c3e 87e8 d33d 28a8 72be d1a0 6dbc
00000080: 92f4 743e 89f4 393c f0ff d2bd 73bf 1f3e
00000090: 7c80 223e f0ed f9bc 4983 f8bb 94d8 cebd
000000a0: 88f2 5abd 7834 da39 e081 9b32 4e0b 323e
000000b0: 8624 32be 35f9 13be bdba 3f3e 3817 1a3e
000000c0: e2c1 cb3d b56e 1b3c 423a 373d 3afd 9d3d
000000d0: 4ff7 523e 782e 323e 4440 1b3d 2f22 193e
000000e0: ae3f 623d cd5e 0b35 1045 103d 8370 7d3e
000000f0: fc32 ebbc 6be0 e13d ee40 f83c 3b9f 4ebb
00000100: 3e3f bbbc cf40 c13d 8672 98b3 b67e 323e
00000110: 1e3b 973b 1c43 13bc 4d1d acbc feb3 1fbb
00000120: 9418 cc3c 1179 403d 6530 27bd ae61 8a3e
00000130: a1ca 4938 7edd e6bb 3d42 363d 19c2 c8bb
00000140: 6ef7 f03c e7e5 043e 1780 b4bd ddf2 b8bc
00000150: 3ce3 08be 2a86 32bb 208f d9bd ca1a 04be
00000160: 885d 903c 6ed6 313d 5438 0b3e 5f8d 45be
00000170: fc0f a13e b3d0 103e 0025 553e 4fe3 4f3e
00000180: 714b 93bd e4b3 1e3e 06c3 40bd 6a21 083e
00000190: e2b6 333c 92bf c432 6768 8f39 e002 c3bd
000001a0: 1852 1d9a b2f5 743c a56d 8d3a 3400 653e
000001b0: e0bd a13d 6ec8 833e 0cea 123e 4b4d 22bd
000001c0: 9be1 de00 dbec 163e 1112 743e b07a 083d
000001d0: b82f 123e a03d 2dbd 59ca 2b3e 408e 77bc
000001e0: d743 ad3e d6d9 1fbe 8646 cbbb 4baf 44be
000001f0: 1a57 1ebe 7fc4 cabc 1b9c 8a3c fb7a 8e3b
00000200: 1f0c 29be af8d 2e3e aa2b 313e b1f2 28bc
00000210: d936 79be a234 1b3d 5b0f 493d b943 b83d
00000220: a714 65be 2377 dcbd 8e5d 973d 8a60 66bd
00000230: c774 033e 2cea 5b3e 79df 09a2 87e0 8b98
00000240: 84ec a2bc f5b2 9f3c d246 7dbd 52ed 2abe
00000250: 0056 02bd 3fd7 853e 019b b7bd 2da8 553e
00000260: 0bf2 103e aed3 24be 6021 c13c 14bc b3bd
00000270: 500d 7b3d fcb4 e0bd bc05 e23e d730 fc3d
00000280: 23be 84be d4ab 073e 1ed4 97bd 2d1f b73c
00000290: 1702 eb3d d90c 3c3e bd19 e7ba 6e0f 8f3d
000002a0: ca8a de3d 29ad 6d3c 7d0c 2aba b295 47be
000002b0: 0852 273e 1f8b 5dbe c5a8 35be 6a45 3bbc
000002c0: 8f03 a5bd d857 4a3b 3162 743c 12a9 78be
000002d0: 3cd5 d0bd b560 513d 2418 c6bd 5da0 603d
000002e0: b816 413e 4a25 44b8 70dd b23d 109b 92bd
000002f0: 5995 7d3d b1e3 6ebe 24ad f43c c89a 133e
00000300: 4faf a03c 6050 6c3e 2ef0 c530 69d8 9a3d
00000310: 8d49 8a3c 2f69 323e 5977 2cbc 29ff df3a
00000320: 7b7b e13c c7a2 763d f086 a53d 0e4e 9939
00000330: fb55 8837 ccb5 92bb 89f7 23bd 7551 133e
00000340: e736 053e 8704 d7bd 6c67 c63d 095c 813d
00000350: 6842 8f3d dc1e ef3c 637f 2e3e 8dc2 3d3e
00000360: 7b82 113e ac74 bd3d 14b9 75be ec01 ca3d
00000370: 41c5 cebe bc93 f2bd 7696 6b3d b31a 69bd
00000380: 493f 583e 8e67 5dbd e634 233e c7fb b93d
00000390: eeee 08bd 5645 a32c 795e 8f3a 526f 503e
000003a0: 3bdc 8094 7161 c3bc 0dd1 893e 9a93 8dbe
000003b0: 78b9 423e 03f7 e23d 2bfe 9c3c f922 d33d
000003c0: d978 9c00 1598 08be b017 30be ad14 10bb
000003d0: aa1e c13d 38b2 243e 102a 213d 5809 383e
000003e0: 31ba 91be e401 f83d 8eb6 1b3e 948c a4bd
000003f0: 1188 b53d 7080 473e b577 1cbe 1268 023e
-0.080020316 0.0041698096 0.03687548 0.09188935 0.021051057 -0.04323133 0.1286564 0.045580324
0.21271095 -0.056774452 -0.048918784 0.1276507 -0.0431906 0.044922136 4.0540775e-18 -4.951634e-24
0.014326921 0.20895454 0.044140846 0.17216894 0.21125773 -0.27376768 0.14560768 -0.1563851
-0.0214021 0.06321548 -0.30674702 0.08586181 0.13726313 0.103470854 -0.23696959 -0.014503674
0.23921421 0.011349806 -0.103027225 0.15600376 0.15869325 -0.030508965 -0.00758401 -0.10099903
-0.053453952 0.00041619292 1.8103435e-08 0.17387125 -0.17396745 -0.14450534 0.18723579 0.1504792
0.099490896 0.009486844 0.044733293 0.07714315 0.20602153 0.17400539 0.037903085 0.14954446
0.05523651 5.191949e-07 0.035222113 0.24749951 -0.028710835 0.110291325 0.030304398 -0.0031528014
-0.022857305 0.094361894 -7.098883e-08 0.17431149 0.0046152016 -0.008988168 -0.021010065 -0.0024368758
0.024914064 0.046990458 -0.040817637 0.2702765 4.8110847e-05 -0.007045447 0.044496763 -0.006126654
0.029414859 0.12978326 -0.08813494 -0.022576744 -0.13367933 -0.0027240613 -0.10623002 -0.12900844
0.017622724 0.043417387 0.13595706 -0.1929221 0.31457508 0.14142112 0.20814896 0.20301555
-0.07192124 0.1549831 -0.04706099 0.13293996 0.010968896 2.290452e-08 0.0002735287 -0.09522033
-3.2533154e-23 0.014951156 0.0010790123 0.22363359 0.07897544 0.25738853 0.14347094 -0.039624494
2.0468412e-38 0.1473879 0.23835017 0.03332013 0.14276016 -0.0422951 0.16776408 -0.015109599
0.3384082 -0.15610442 -0.0062034754 -0.19207494 -0.15462914 -0.0247519 0.01692014 0.0043481565
-0.1650853 0.17046236 0.17301813 -0.010311768 -0.24337329 0.03789199 0.04908691 0.08997292
-0.2237116 -0.10764911 0.07390891 -0.05624441 0.12837516 0.21476048 -1.8685268e-18 -3.6157373e-24
-0.01988817 0.019494513 -0.061835118 -0.16692093 -0.031820297 0.26140782 -0.089651115 0.20864935
0.14154832 -0.16096374 0.023575485 -0.087761074 0.061291993 -0.1097202 0.44145 0.12314003
-0.25926313 0.13249141 -0.07413505 0.022353733 0.11475008 0.18364276 -0.0017631572 0.06985365
0.10866316 0.014506617 -0.0006486846 -0.19490698 0.16339886 -0.21635102 -0.17740162 -0.011430124
-0.080573194 0.0030875113 0.014915989 -0.24283245 -0.10196921 0.051117618 -0.09672573 0.054840434
0.18856323 -4.676477e-05 0.08733642 -0.07158482 0.061910007 -0.23329045 0.029867716 0.14414513
0.019614844 0.23077536 1.44019e-09 0.07560808 0.016880775 0.17422937 -0.010526502 0.0017089593
0.0275247 0.06021383 0.08082378 0.0002924059 1.6252501e-05 -0.0044772383 -0.04003099 0.14386542
0.13009225 -0.104989104 0.09687695 0.063163824 0.06995088 0.02918952 0.17040782 0.18531246
0.1420993 0.09250769 -0.23996383 0.09863648 -0.40384868 -0.11844584 0.057516538 -0.056910228
0.21117891 -0.054053836 0.15938148 0.09081226 -0.033430986 4.6404365e-12 0.0010938189 0.20354965
-1.3011563e-26 -0.023850175 0.26917306 -0.27651674 0.19016063 0.1108227 0.019164165 0.10309405
1.436969e-38 -0.13339265 -0.17196536 -0.002198498 0.09429677 0.1608361 0.039346755 0.17972314
-0.28462365 0.121097356 0.15206358 -0.08034626 0.08863843 0.19482589 -0.1528004 0.12735012

act_conv1.bias f4 [4]
00000000: 7a4d 423d 18a0 ba3d 61dd 9cba dd99 b0bd
0.04743717 0.09112567 -0.0011967832 -0.08623097

act_fc1.weight f4 [64, 256]
00000000: b5d9 6d3c 26b9 3a3c 83d5 b23a 2040 e23c
00000010: 3b78 8fbc 9c9a 6cbc 7682 90bd ad43 93bb
00000020: 445f d5bc 110f 8cbc d5dc cfbc c4b4 15bd
00000030: 7855 48bd 06ba 00bc f70d 523c e208 abbd
00000040: 161c 3fbd 81a1 1a3b 5a95 3abc f0fb 16bd
00000050: 5c7d 11bd 8433 9d3d 5e17 ad3c a57b 45bd
00000060: 779d f73c 657e 7bbd d5d6 923c fa6c 033d
00000070: 1d33 ea3b 8fa7 5abc bdc8 4f3c d7d0 013d
00000080: 7391 81bd 1fbb eeb9 e9aa c93c 0d75 ab3c
00000090: ea70 433d 113b fabc 1a1c 81bc 246c 88bc
000000a0: a53d 4ebd f695 b63c 6489 0dbd e302 a73d
000000b0: 7c50 cf38 594c fabb 92b6 113c 045f e43c
000000c0: 5699 6ebd f9fc e0bc a012 c43d 6f16 d7bb
000000d0: 4ba9 6abc d372 bcbc 38c2 86bb 5c6a 08bd
000000e0: 0b20 60be f40d d4be e658 c13c 5b69 f0bb
000000f0: 0446 b93b 2f91 0fbd faf9 5d3c 5bcb 5b3c
00000100: 40eb d0bc c0df 84bd 44e6 8cbd f32d 4ebd
00000110: b99c 7dbd c31a 4abd 36fe 81bd cca6 06be
00000120: 0d56 2a3d c57f 033d 2bc7 243d 263e 183b
00000130: 6e51 9ebd f5e5 073d cbcc 08bd 911b 113c
00000140: 24c2 5c3d bd9a dc3c dbcd a4bc 9939 c7bc
00000150: 7d63 b33d 0f26 d8bd 10c6 c7bc 0278 08bd
00000160: 0809 e3bb 1a16 93bd a809 88bc 372b 50bd
00000170: 5e12 d1bd b135 89bc 2818 62bd ac32 7bbd
00000180: be69 dc3a 71c8 54bd a976 04be 72a4 86bc
00000190: 4b79 8f3b 2bc9 e7bb d184 2dbd 63bd 173d
000001a0: b712 713d 02f3 e2bd b9f7 053c 7f8a b0bc
000001b0: ed21 b7bd 1012 483c 20ee 52bc 8bc4 e43c
000001c0: 4c79 08be 1ff5 213d 186f 173d 7739 37bd
000001d0: d513 36bd 9ab8 14bd aa62 c93c 156b 683d
000001e0: 13f2 843e 737c 1e3e 913a cc3d f3c1 653d
000001f0: 1fed 953c 3a2d efbc 27d8 373c c65c 8e3c
00000200: 9112 4c3c c32a 90bd 2c9e 31bc 3c5a 413d
00000210: db54 b9bb 33e7 54bc c2b5 553d 0b94 06bd
00000220: f572 663d e9f1 6ebd 6ba1 c9bc ce15 953b
00000230: 7b1a b03c 095a 73bd 3b27 c03c 0c4f 3c3d
00000240: 33e9 f3bc 1f66 98bd 3327 afbb 6fa1 993a
00000250: f89a 9abc f00e 1ebc 8aba 28bd 1c37 01bd
00000260: 9ce1 a4bc 3315 a6bd ecea d8bc 9a69 23bc
00000270: e817 0dbb efbd 8e3c 14f8 783d 6fac 593c
00000280: 9c03 d43b 5c85 d23c 29d6 7f3b e96a da3c
00000290: 116d 6abc 1566 f9bc 6ad7 4d3c b5e2 d6bc
000002a0: 1256 ce3d 6f66 523d 7697 95bc 7553 cf3b
000002b0: a5aa 823c 5f67 13bd 6251 a3bc 2358 42bd
000002c0: 9e99 2c3e 6358 eabc 14bd 093e c3ab 333c
000002d0: 3e2c ccbc 169a 98bb 1cc7 07bd 5b5f 0d3c
000002e0: d63f 67be a3ca 9a3e 1e34 83bd 0a5c a0bd
000002f0: 8612 923b 144c b4bc a1dd e9bc 1483 65bc
00000300: a053 12bd 9912 b5bd 9ab4 3fbd ac8d 863a
00000310: bdd2 c63b 3701 bebc 4a31 85bd f98e 9cbd
00000320: 2207 82bd 9325 cebb 52ad b03c 741b 9c3d
00000330: e36c 5ebd c952 253d f6b2 4c3d fd10 d7bd
00000340: 3a14 adbd f108 a33c 5790 fc3c 16ab c6bb
00000350: cc35 a83d b3f3 f239 7043 bf3b 5b7c 273d
00000360: bace 82bd bce3 d63c f3f9 863d c0d6 023d
00000370: 3d19 35bd 5baf 893d 0489 c53c 74f4 ad3b
00000380: 4f2f f83c fe2e 463d 0e6d a93c 9719 0a3c
00000390: d31b 7e3d d043 0e3d abcb 4e3d bd89 12bc
000003a0: 1abb 9f39 208a 9e3d e5c6 40bc 1be2 ca3d
000003b0: 82e5 05bc 46bd 603d 77f2 95bc 9c62 243c
000003c0: c2cc bb3d 6ead 633d 27d5 5f3e 100b 283d
000003d0: 1257 fdbc 0c24 30bd d18e 89bd b632 233d
000003e0: 9783 a33c 78e9 69be 9627 e93d 465d 723d
000003f0: 362c 33bd f2b8 27bd fe72 4cbd 8f95 37bd
0.014517237 0.011396682 0.0013643954 0.027618468 -0.017513385 -0.014441159 -0.070561334 -0.0044941516
-0.026046403 -0.017097028 -0.025373856 -0.036549345 -0.048909634 -0.007856851 0.012820712 -0.08351304
-0.046657644 0.00235948 -0.011388147 -0.03686136 -0.035519943 0.076758415 0.021129306 -0.04821362
0.030226452 -0.061399836 0.017924706 0.03208635 0.0071472065 -0.013345613 0.012682137 0.031693306
-0.0632657 -0.00045534314 0.02461763 0.020929838 0.047715105 -0.030545743 -0.01576047 -0.016653128
-0.050351758 0.022288304 -0.034554854 0.081548475 9.8855206e-05 -0.007638496 0.008893626 0.027877338
-0.0582517 -0.027464377 0.09573865 -0.0065639536 -0.014322589 -0.023003971 -0.004112508 -0.033304557
-0.21887223 -0.41416895 0.02360196 -0.007336778 0.0056540985 -0.035050567 0.013548369 0.013415183
-0.025502801 -0.064879894 -0.06879857 -0.05033679 -0.06191704 -0.04934193 -0.06347315 -0.13149565
0.04158597 0.032104272 0.040229004 0.0023230403 -0.07730375 0.03317829 -0.03339843 0.00885667
0.053896084 0.026929254 -0.02011769 -0.024319457 0.0875921 -0.10554134 -0.024386436 -0.033317573
-0.006928567 -0.0718195 -0.016606167 -0.050822463 -0.102085814 -0.016749235 -0.05519882 -0.06132762
0.0016816182 -0.05194897 -0.1293589 -0.016435836 0.004378473 -0.0070735416 -0.04236299 0.037045848
0.05885574 -0.11081506 0.008176737 -0.021550415 -0.08942018 0.012211338 -0.012874156 0.02792575
-0.13327521 0.039540406 0.03697118 -0.044732537 -0.044452507 -0.036308862 0.02458318 0.056742746
0.25965938 0.15477161 0.09972108 0.056093168 0.018301545 -0.02919637 0.011220968 0.017378222
0.012455598 -0.07039406 -0.010840934 0.047205195 -0.0056558675 -0.012994575 0.05217529 -0.03285603
0.056261975 -0.058336172 -0.024613103 0.0045497185 0.021497002 -0.059412036 0.023456207 0.045973822
-0.029774284 -0.07441353 -0.005345249 0.0011721085 -0.018872723 -0.009647116 -0.041193523 -0.031546697
-0.02012711 -0.08109512 -0.026479207 -0.009973908 -0.0021529142 0.017424552 0.06078346 0.01328574
0.006470157 0.025698356 0.0039037562 0.026662307 -0.01430823 -0.030444184 0.012563566 -0.02623115
0.1007501 0.05136722 -0.018260699 0.0063270875 0.01595051 -0.035987254 -0.019936267 -0.047447335
0.16855475 -0.0286066 0.13451034 0.010966244 -0.02492344 -0.0046570404 -0.03314887 0.008628692
-0.22582945 0.30232725 -0.06406425 -0.07830055 0.0044577746 -0.022008933 -0.028548064 -0.014008302
-0.035724282 -0.08841438 -0.046803094 0.001026561 0.0060676024 -0.023193939 -0.06503542 -0.07644457
-0.06349017 -0.0062911003 0.02156702 0.07622424 -0.05430306 0.040362153 0.049975358 -0.10501287
-0.084511235 0.019901725 0.030830545 -0.0060628755 0.08213386 0.00046339407 0.0058368966 0.04089008
-0.06387086 0.02623164 0.06590643 0.031943083 -0.044213522 0.067228995 0.024113186 0.005308682
0.030295996 0.04838466 0.020681884 0.008428953 0.062038254 0.03473264 0.0504872 -0.008943972
0.00030466245 0.07741189 -0.01176617 0.099064074 -0.008172395 0.054868005 -0.018304093 0.010033276
0.09169914 0.055585317 0.21858655 0.041026175 -0.030925307 -0.043003127 -0.06716693 0.039843284
0.019960208 -0.22842968 0.113845035 0.059170984 -0.043743335 -0.040947862 -0.049914353 -0.044820365

act_fc1.bias f4 [64]
00000000: 0996 4bbc a5d1 44bd 7ad3 9cbc 49d0 02bd
00000010: 6c2b 31bd 3a8b 1fbd 9d03 4fbd cd42 cd3b
00000020: 8e73 34bd d3f5 58bd 471c 2cbd f997 b53d
00000030: d2f9 e43d 6197 a2bc 0da7 c5bc 866d 45bd
00000040: dbdb 1dbd 8228 c53c cfb1 64bc 3698 a43c
00000050: d1a8 f73c 761d 0cbe 96f8 3cbd afc5 0cbd
00000060: 81fa 2cbd 9183 883d caea 433d e177 f4bc
00000070: fdde ae3c 1605 723d 7923 aa3d 1d42 33bd
00000080: 858c 0cbd 49f0 ff3d d244 8bbb 4dd7 99bc
00000090: c205 a0bc 1d0c f63c f71f c73d 6f5f 113d
000000a0: ecc2 a33c 32a7 34bd 3263 dabd 93bb 303c
000000b0: 62f4 a63c 1260 4ebd e1f8 42bd 8c8b 2cbd
000000c0: 0c4e 14bd 0739 17bd 4f4d 403c f669 e33d
000000d0: 5e75 063e 2827 edbc c3b8 86b9 28ab 7abd
000000e0: 89c1 1ebd 6787 36bd 27f1 07bd 74bb 923c
000000f0: fc65 6c3c 3702 47bc 122f b2bc 2e0f 56bc
-0.012425908 -0.048051495 -0.019143809 -0.031936917 -0.0432543 -0.038951136 -0.050540555 0.006264067
-0.044055514 -0.05296881 -0.042019155 0.08866877 0.11180462 -0.019847574 -0.024127508 -0.048200153
-0.03853975 0.024067167 -0.0139584085 0.020092111 0.030231865 -0.13683113 -0.046135508 -0.034368213
-0.042231087 0.06665719 0.047831334 -0.029842319 0.021346563 0.05908688 0.08307547 -0.043764222
-0.034313697 0.12497003 -0.0042501474 -0.018779421 -0.019533996 0.030035073 0.09722894 0.035491403
0.019990407 -0.044104762 -0.10663451 0.010786909 0.020380203 -0.05038459 -0.04760063 -0.04212527
-0.036207244 -0.03691962 0.011737182 0.11104195 0.1313071 -0.028949335 -0.0002569613 -0.061198384
-0.03875879 -0.044562723 -0.033188965 0.01791165 0.014428612 -0.012146524 -0.02175096 -0.013065143

val_conv1.weight f4 [2, 128, 1, 1]
00000000: be51 1000 3a9b 4280 379c e480 8c79 8e80
00000010: 48bb 2a00 3881 0401 c171 c600 897a d780
00000020: 9f8e a400 51b2 3e80 48ec 9700 0b42 8d80
00000030: 516c 2a00 fcda 7e00 e563 6300 6154 3100
00000040: 056b 4b00 264b 6080 89c6 5900 5213 fe00
00000050: 6689 f700 7dd8 6600 0608 c200 295c 3c00
00000060: b164 8f00 301a 3200 4dfb 6100 5da8 6500
00000070: 6e26 fe00 cfb2 1280 c2e8 c200 8aff 9600
00000080: 4d47 9300 5811 5b80 dff8 b000 40b1 e380
00000090: 841a de00 f467 6900 5ae4 6280 af8d b180
000000a0: b5be 9e80 18c7 f300 c315 2f00 1bb4 ca80
000000b0: e155 0181 1a4b 4c00 a9d2 e700 e513 7d80
000000c0: bc02 4d80 4c4b 7880 2618 fb80 6be0 5680
000000d0: 6bc1 0a80 9f64 1e00 7700 c780 5a2d 5a00
000000e0: f373 7080 31dd 6200 acdf 3680 de89 c800
000000f0: 603c bb00 2f9f 5400 d892 2700 1042 5e00
00000100: d5df b480 e261 4180 b218 6680 8e68 b280
00000110: 5926 7e00 bf28 6b80 8c2d c900 9e4a 3f80
00000120: 58cf 5980 1299 2400 ea5f 6d80 4b89 9680
00000130: d77c df00 3923 2380 fa66 1f00 0a98 4e00
00000140: d9cc 9700 f639 6d80 c4cb 7400 44ad 3700
00000150: e19c 6100 e038 6300 c955 3100 34c0 f580
00000160: 1e2d 0700 89c7 4f00 8661 5b00 6635 2880
00000170: d170 5000 894f ec00 834b 4380 8e91 3000
00000180: 598a a080 71bb 5f80 9046 7b80 5b8f 3200
00000190: f3ce 0d00 8837 4480 3171 6400 f5f1 3200
000001a0: 0115 5380 b6e5 ae80 b0df 2f00 1395 b480
000001b0: 3955 6f00 47b2 0680 69b7 7e00 14d9 a280
000001c0: 4dbd b180 bc6c 2300 2eef fa00 a7dc 6200
000001d0: 30d4 2580 f14d 6380 f5ec 8980 bed3 0a01
000001e0: b512 2b00 5f9a b900 9dcf 1f80 9cb7 d200
000001f0: af80 be80 9d7f 0f80 4d62 3e00 e416 8280
00000200: effc 213d d692 593d 9098 213d ca9d c83d
00000210: 8f72 b13d 7d94 38be 8169 1b3e f58a 293d
00000220: 0545 0f3c 1ebc aa3d 1428 243e 4e2e 243d
00000230: 36eb e13c 6d3a 5b3b e5c6 d839 4be8 d780
00000240: f584 71be 0fe2 a3bd 2f4a 023e 9cfa b03d
00000250: 6665 763c 9389 c3bd 0f1c 1b3d 21f8 16be
00000260: 77d1 433e 1815 3ebe b3af ce3d 9504 6d3e
00000270: 6ccd 0abe f108 aabe 32be ea3b d96f 143d
00000280: 7a19 a13c 9a5c 1d3d bae6 eabd 8262 c7bc
00000290: b637 b3bc 723e 483d ca3a 9ebb acff a6be
000002a0: 3c84 3c3d 1af6 e53b 673d 30bb 2457 bc3c
000002b0: 29c6 a63c 94e0 83bc 0db7 5a3d 6c90 5b3e
000002c0: 76df 9a3d e510 163e 4639 98be e087 923d
000002d0: 5079 cabc 046c de3d 48b0 c63d 604f 46bd
000002e0: c77d e5bd d277 96bb 37ce 4d3d 55ac a4bc
000002f0: b543 003d 9b02 983c 283d b7bd f12e a43d
00000300: 1d76 35be 0058 cf3c 578a b328 e093 f8bc
00000310: fae3 e83c d732 94bd 37fa 00bf 3921 42bc
00000320: cb4b 2d3d 3fae d23d c3b8 a4bd b735 6dbc
00000330: 7c45 703b 3636 163d 95a8 7ebe 459d 6bbd
00000340: 8b7b 223d f6a6 833d 9c4d abbd 2e47 2e3e
00000350: 9bb0 223d f505 d7bd 437b e03d 2589 863d
00000360: 5c04 9cbd 7102 f93c c8c6 88bc a84a 5a3d
00000370: ec63 2dbe 687d 19bd a7ce 1e3d a624 8cbe
00000380: 1081 0bbe 4d5e 37bd 8384 96bd 9859 c1bd
00000390: d1f1 1dbe 833f e1b7 6e72 a9b7 e559 4bbd
000003a0: 7fef f300 2b7a 32be cf46 2f3e 05f8 763a
000003b0: 4f69 243d 759f 85bc 2f8a ff3c 7067 c7bd
000003c0: de85 4b80 3235 f73d bfeb 16bc ac86 30be
000003d0: 3497 2c3d 2e67 a43d fb66 333d f070 de3c
000003e0: 7d9c 2f3c 4530 d63c 1392 8b3d 8485 d13d
000003f0: 4104 cd3c 5564 193d 5197 37be ddf8 583d
1.498692e-39 -6.116828e-39 -2.0994532e-38 -1.3084243e-38 3.924275e-39 2.433728e-38 1.8224235e-38 -1.9788589e-38
1.5112184e-38 -5.757769e-39 1.3951922e-38 -1.2972497e-38 3.895947e-39 1.164983e-38 9.12755e-39 4.530209e-39
6.926054e-39 -8.843166e-39 8.24458e-39 2.3333147e-38 2.2732657e-38 9.444882e-39 1.7818965e-38 5.54319e-39
1.3168597e-38 4.601169e-39 8.998193e-39 9.335782e-39 2.3340002e-38 -1.717183e-39 1.7899584e-38 1.3866995e-38
1.3525396e-38 -8.363252e-39 1.6252325e-38 -2.0910243e-38 2.0396992e-38 9.680018e-39 -9.081796e-39 -1.630571e-38
-1.4578421e-38 2.2387447e-38 4.324075e-39 -1.861538e-38 -2.3755173e-38 7.006439e-39 2.128957e-38 -1.1486574e-38
-7.072314e-39 -1.1047271e-38 -2.3059372e-38 -7.978359e-39 -9.8774e-40 2.791161e-39 -1.827543e-38 8.281464e-39
-1.032717e-38 9.079227e-39 -5.039355e-39 1.8416557e-38 1.7194896e-38 7.771286e-39 3.634262e-39 8.656235e-39
-1.6610685e-38 -6.004421e-39 -9.37608e-39 -1.6384225e-38 1.1585029e-38 -9.841015e-39 1.8475274e-38 -5.812404e-39
-8.24774e-39 3.360989e-39 -1.0044477e-38 -1.3824576e-38 2.05241e-38 -3.226878e-39 2.883841e-39 7.21771e-39
1.3940645e-38 -1.0030862e-38 1.0726015e-38 5.113108e-39 8.96432e-39 9.112117e-39 4.530713e-39 -2.2568646e-38
6.59033e-40 7.326584e-39 8.392015e-39 -3.692576e-39 7.38731e-39 2.1701709e-38 -6.180067e-39 4.460319e-39
-1.4743309e-38 -8.791613e-39 -1.1321079e-38 4.643201e-39 1.268101e-39 -6.264735e-39 9.224155e-39 4.678573e-39
-7.629881e-39 -1.6061781e-38 4.396512e-39 -1.6583867e-38 1.0224312e-38 -6.14967e-40 1.1637068e-38 -1.4955223e-38
-1.6322791e-38 3.253249e-39 2.3044676e-38 9.079034e-39 -3.474032e-39 -9.119674e-39 -1.2666467e-38 2.5498515e-38
3.955637e-39 1.7044945e-38 -2.921378e-39 1.9351321e-38 -1.7494907e-38 -1.423311e-39 5.729064e-39 -1.1946826e-38
0.039547857 0.05311855 0.039452136 0.09795721 0.086644284 -0.18025394 0.15176965 0.041392285
0.008744483 0.08336662 0.16030914 0.040083222 0.027577978 0.0033451573 0.00041346918 -1.9827963e-38
-0.23585875 -0.08002102 0.12723611 0.0864155 0.015038824 -0.095477246 0.037868556 -0.14743091
0.19122873 -0.18562734 0.10092106 0.23146279 -0.13554925 -0.33209947 0.0071637863 0.03623948
0.019665468 0.03841839 -0.11469789 -0.024338964 -0.021877151 0.048887677 -0.0048287855 -0.32616937
0.046024546 0.007017863 -0.0026892067 0.02299077 0.020358162 -0.016098298 0.053397227 0.21441811
0.07562153 0.14654882 -0.29731196 0.07154822 -0.02471605 0.10860446 0.09701592 -0.04841554
-0.11205631 -0.0045919204 0.05024549 -0.020101706 0.03131457 0.01855593 -0.089472115 0.08016766
-0.17720838 0.025310516 1.9932987e-14 -0.03034395 0.02842902 -0.072362594 -0.503818 -0.011848741
0.04230861 0.10287141 -0.08043053 -0.014478139 0.003666251 0.036672793 -0.24868996 -0.05752303
0.0396686 0.0642833 -0.08364412 0.1701934 0.039719205 -0.10499183 0.1096101 0.06569127
-0.07618019 0.030396672 -0.016696349 0.053293854 -0.16932648 -0.037473112 0.038771298 -0.2737171
-0.13623452 -0.044767667 -0.07349493 -0.09440917 -0.15424277 -2.6851665e-05 -2.0199655e-05 -0.049646277
2.240194e-38 -0.17429416 0.17116855 0.0009421113 0.040139493 -0.016311387 0.03119382 -0.09736526
-6.935685e-39 0.12070693 -0.00921148 -0.17238873 0.042136386 0.080274925 0.04379938 0.027153462
0.010718462 0.026146064 0.06814971 0.10230544 0.025026442 0.0374492 -0.17928816 0.05297171

val_conv1.bias f4 [2]
00000000: 9ceb 8e9b d1aa 8bbc
-2.3644188e-22 -0.017049225
